baseline/experiments/results/NCI1/latest_NCI1.pth (torch, 88471 bytes, 6 tensors)

conv1.lin.weight f4 [128, 37]
0	0xbf02df74	-0.5112221
1	0xbec71fe2	-0.38891512
2	0x3e5eec4a	0.21769825
3	0xbc84f8dc	-0.016231947
4	0xbd09a0de	-0.03360068
5	0x3e0254f1	0.12727715
6	0xbe0072f3	-0.1254385
7	0xbe8c3ea4	-0.2739154
8	0xbeca8263	-0.39552602
9	0x3e18e316	0.14930376
10	0x3d07bf8d	0.03314166
11	0xbbc6caef	-0.006066672
12	0xbb638d5b	-0.0034721706
13	0x3e6938cc	0.22775573
14	0xbcc11ca7	-0.023573233
15	0xbcd98496	-0.02655248
16	0x3d98b65c	0.07456657
17	0xbcc77745	-0.024348864
18	0xbe2ebad7	-0.17063461
19	0xbe21f205	-0.1581498
20	0xbe5fd852	-0.21859863
21	0x3d4175f2	0.047231622
22	0xbc62a6f1	-0.013833747
23	0x3d59119b	0.052995306
24	0xbdafa73b	-0.085768186
25	0x3d86cfbc	0.06582591
26	0xbdcd2951	-0.10017646
27	0xbdb29d8f	-0.08721458
28	0x3d9a0d02	0.07522012
29	0xbc9fb821	-0.01949698
30	0xbd2deb45	-0.0424607
31	0x3c87dd2f	0.01658496
32	0xbc1dd918	-0.009634279
33	0x3d02cbef	0.031932767
34	0xbd039200	-0.03212166
35	0x3c746e74	0.014918912
36	0x80012971	-1.06702e-40
37	0x3d5e06ce	0.05420571
38	0xbbc548d0	-0.006020643
39	0xbe3d5ba7	-0.18491994
40	0x3d3e2e04	0.046430603
41	0xbd80d975	-0.06291477
42	0xbc5cbb43	-0.013472381
43	0x3d1cfca6	0.03832688
44	0x3e0b6d6b	0.13615958
45	0xbee5009a	-0.4472702
46	0xbe82152b	-0.25406775
47	0xbe167821	-0.14694263
48	0xbce0beb3	-0.027434682
49	0xbd5713f3	-0.05250926
50	0xbd7c1500	-0.061543465
51	0xbc132efd	-0.008983371
52	0xbcfdf815	-0.031002084
53	0x3c58694e	0.0132087
54	0xbda5377f	-0.08067226
55	0xbdda06fa	-0.10645862
56	0xbddca98b	-0.10774525
57	0x3e314f46	0.17315397
58	0x3e62e7b0	0.22158694
59	0xbb528f0d	-0.0032128722
60	0xbd87617a	-0.06610389
61	0xbd776206	-0.060396217
62	0xbe17f154	-0.14838153
63	0xbe3807ce	-0.17971727
64	0x3d0de79e	0.034644715
65	0x3d5a998c	0.05336909
66	0x3c78ddee	0.015189631
67	0x3d855a5a	0.06511374
68	0x3bcac6b9	0.0061882404
69	0x3cedc899	0.029026316
70	0x3cb2e1e1	0.021836223
71	0x3d357eb2	0.04431028
72	0x3b7b4a43	0.0038343824
73	0x000074c7	4.1892e-41
74	0x3e5fbcc5	0.21849354
75	0x3df9eaa6	0.12202959
76	0xbe7242e3	-0.23658328
77	0x3db35613	0.08756652
78	0xbd36f296	-0.04466494
79	0xbd9dc7c2	-0.077041164
80	0x3dd5110a	0.104036406
81	0x3e1f8e14	0.15581542
82	0x3d8f948b	0.07010754
83	0xbde03010	-0.10946667
84	0xbd34bcd5	-0.044125397
85	0xbbe0ab8d	-0.006856388
86	0xbc0b78b2	-0.008512663
87	0xbe0a4f8e	-0.1350691
88	0x3be1cc1f	0.006890788
89	0x3ae39986	0.0017364479
90	0xbcbbbf79	-0.02291845
91	0xbc7b6dab	-0.015345971
92	0x3d59762c	0.053091213
93	0x3d2fd8cf	0.042931374
94	0x3e194517	0.14967762
95	0x3d5d568d	0.05403762
96	0x3b25d195	0.0025301923
97	0xbd122815	-0.035682756
98	0x3cd066f6	0.02543972
99	0xbd6a5915	-0.05721386
100	0x3c3159cb	0.010824631
101	0x3d0e2a6e	0.034708433
102	0xbca33931	-0.019924732
103	0x3a4a6750	0.0007721083
104	0x3d0747f7	0.033027615
105	0xbb9b70f7	-0.004743691
106	0x3c84bcf2	0.016203377
107	0xbbfd33db	-0.007727129
108	0x3cb49730	0.022044748
109	0xbb73d4d2	-0.0037205708
110	0x8000a304	-5.8479e-41
111	0xbdc39da0	-0.09551549
112	0x3e0710e9	0.13190044
113	0xbe47265a	-0.19448224
114	0x39840b6a	0.00025185506
115	0xbd21f326	-0.039538525
116	0x3c0b4b7c	0.008501884
117	0x3d4f5102	0.050614364
118	0x3dc5986c	0.09648213
119	0xbf06aa16	-0.5260328
120	0xbe878f7e	-0.26476663
121	0xbe169715	-0.1470607
122	0xbca895cf	-0.020579247
123	0xbd5bef99	-0.053695295
124	0x3c6b3dd8	0.014358006
125	0xbbdf9b20	-0.0068239123
126	0xbcc7df13	-0.024398362
127	0x3c10d316	0.008839389
128	0xbd7f846a	-0.06238214
129	0xbdbf5e94	-0.09344211
130	0xbdd39907	-0.10331922
131	0x3e378d9f	0.17925118
132	0x3e17b9b5	0.14816935
133	0xba1bb93c	-0.0005940383
134	0xbd835740	-0.06413126
135	0xbd728fc8	-0.05921915
136	0xbe12dbac	-0.1434161
137	0xbe4e7462	-0.20161584
138	0x3d45c890	0.048286974
139	0x3d4b998f	0.04970699
140	0x3d0833cc	0.033252522
141	0x3d774c5c	0.060375556
142	0xbaa98996	-0.001293468
143	0x3c876eca	0.01653232
144	0x3ca17139	0.01970731
145	0x3d34adbc	0.044111
146	0x39abf427	0.0003279757
147	0x80008dda	-5.0887e-41
148	0xbdfae26c	-0.12250218
149	0x3ca2e18d	0.019882942
150	0xbd83b699	-0.06431312
151	0x3d8c5e59	0.06853933
152	0xbc5a3dd3	-0.013320404
153	0x3df1d06f	0.11807334
154	0x3d7bfe2f	0.061521705
155	0x3dd22861	0.10261608
156	0xbf92a839	-1.1457587
157	0xbed59cea	-0.41721278
158	0xbe8077c2	-0.25091368
159	0xbd480158	-0.048829406
160	0xbdc74714	-0.09730354
161	0x3dc7dd74	0.09759036
162	0xbcc0389f	-0.023464499
163	0xbd7ba7cf	-0.06143933
164	0x3d6157d0	0.055015385
165	0xbe11782b	-0.14205997
166	0xbe491542	-0.19637015
167	0xbe8128a7	-0.25226328
168	0x3e5398bc	0.20663732
169	0x3ec95df2	0.39329487
170	0xbc1f5629	-0.009725132
171	0xbdc52104	-0.09625438
172	0xbe0db94f	-0.13840221
173	0xbe7220eb	-0.2364537
174	0xbecc4034	-0.39892733
175	0x3d11598f	0.0354858
176	0x3e04255a	0.12904873
177	0x3d22cef9	0.039748166
178	0x3dc769ba	0.097369626
179	0x3c4626a9	0.012094178
180	0x3d16ee3b	0.036848288
181	0x3d5fcb69	0.054637346
182	0x3d8b5fbb	0.068053685
183	0x3c26cd21	0.0101807425
184	0x00004e24	2.8032e-41
185	0x3e96b302	0.29433447
186	0x3da602ae	0.0810598
187	0xbda3a58d	-0.07990561
188	0x3e5d9bd6	0.21641478
189	0x3dc8437f	0.09778499
190	0xbda3400a	-0.07971199
191	0x3e7a9d03	0.24473958
192	0x3e23f956	0.16013083
193	0x3f7a2464	0.9771178
194	0x3e512be0	0.20426893
195	0x3e28d590	0.16487718
196	0x3c96ce5b	0.018408945
197	0x3d8b3a0f	0.06798183
198	0xbe9b6946	-0.30353755
199	0x3cbaad8a	0.022787828
200	0x3d1ef7ef	0.038810667
201	0xbd85652a	-0.06513436
202	0x3d998f3a	0.074980214
203	0x3e39b965	0.18137129
204	0x3e7083b8	0.23487747
205	0x3cd7dde0	0.026350915
206	0xbdeacdfb	-0.11465069
207	0x3bcbea0d	0.0062229694
208	0x3d1ab1c9	0.037767205
209	0x3e046cb5	0.12932093
210	0x3dd7f1aa	0.10544141
211	0x3ead0a12	0.33796746
212	0xbbd8072b	-0.0065926514
213	0xbdf3e329	-0.11908562
214	0xbd693c38	-0.056942195
215	0xbd0c6d67	-0.03428402
216	0xbc04e997	-0.008112333
217	0x3bb54789	0.0055322093
218	0xbd4a8854	-0.04944642
219	0xbcf6d5be	-0.030131217
220	0xbbdb0c06	-0.006684783
221	0x00019f5d	1.49004e-40
222	0xbe7f8dea	-0.2495648
223	0xbec67457	-0.38760635
224	0x3cf783e2	0.030214254
225	0x3e09bc53	0.13450746
226	0x3d7554da	0.059895374
227	0x3d62645f	0.055271503
228	0xbdc57c98	-0.09642905
229	0xbd2434ec	-0.040089533
230	0xbdb57d99	-0.088618465
231	0x3cd9a841	0.026569488
232	0xbb6100b2	-0.003433269
233	0xbc58f6c6	-0.013242429
234	0xbbefb178	-0.007314857
235	0x3c98198e	0.018566873
236	0xbc184521	-0.009293825
237	0xbc80e599	-0.01573448
238	0x3cc595cd	0.024119282
239	0xbcdb4bcc	-0.026769541
240	0xbd8f2cfc	-0.06991002
241	0xbd595370	-0.053058088
242	0xbd872deb	-0.06600555
243	0x3dcf6071	0.101258166
244	0xbbb90473	-0.0056462823
245	0x3c03720e	0.008022798
246	0xbce301eb	-0.027710875
247	0xbca1972f	-0.01972541
248	0xbcacc31a	-0.021089125
249	0xbd003739	-0.031302664
250	0x3cc8fbac	0.024534069
251	0xbcb3b7bc	-0.021938197
252	0xb9b6660a	-0.0003478977
253	0x3c0fa056	0.008766254
254	0x3c090489	0.008362898
255	0x3c3802fd	0.011231181

conv1.lin.bias f4 [128]
0	0xbbb6ae27	-0.00557496
1	0x3d9323d4	0.07184568
2	0x3d96ba73	0.07359781
3	0x3dd1cf33	0.10244598
4	0x3c9d2dbb	0.019186845
5	0xbc1e7607	-0.009671695
6	0x3d514e17	0.051099863
7	0x3d37a476	0.044834577
8	0x3db34bef	0.087547176
9	0x3d1cbe56	0.038267456
10	0xbcf80709	-0.030276792
11	0x3bb84f3f	0.0056246812
12	0xbc7fc8ad	-0.01561181
13	0xbda5b74d	-0.080916025
14	0x3cfa7316	0.030572455
15	0xbd27599b	-0.04085694
16	0x39fdd665	0.00048415657
17	0xbbe602d2	-0.007019379
18	0x3c9dcc8d	0.019262576
19	0xbcad7cee	-0.021177735
20	0xbd3c4dcd	-0.045972634
21	0xbcbbfb9d	-0.022947127
22	0xbc60830f	-0.013703122
23	0xbd419545	-0.047261495
24	0xbc4bde18	-0.012443088
25	0xba6f2986	-0.0009123314
26	0xbcdba2f4	-0.0268111
27	0x3dcba962	0.099444166
28	0x3cd370c1	0.025810601
29	0x3d5aad1f	0.053387757
30	0xbd184a3d	-0.037180174
31	0xbdd97166	-0.10617332
32	0xbc9ee2db	-0.019395282
33	0xbd9377c0	-0.07200575
34	0x3d716800	0.058937073
35	0x3d94fe01	0.0727501
36	0xbcbb6fbf	-0.022880433
37	0x3d54fa23	0.05199636
38	0x3de61790	0.11234963
39	0x3d3185c7	0.04334047
40	0xbc70ede4	-0.014705155
41	0x3d3de4a4	0.046360627
42	0x3c711866	0.01471529
43	0x3dc143b9	0.09436745
44	0xbcb4169c	-0.021983437
45	0x3d926a75	0.07149211
46	0x3c91846b	0.017763337
47	0xbd3a7bf1	-0.045528356
48	0xb9b68986	-0.00034816208
49	0x3d705ac9	0.05868033
50	0xbc4bcb27	-0.012438572
51	0xbc048813	-0.008089083
52	0xbc0f9f5d	-0.0087660225
53	0x3a8327cc	0.0010006367
54	0x3dc84622	0.09779002
55	0xbb64090b	-0.003479543
56	0x3cc3d970	0.023907393
57	0xbc7ec5d5	-0.0155500965
58	0xbcb5afb7	-0.022178514
59	0xbd2599c0	-0.04042983
60	0xbcec0e84	-0.028815515
61	0xbce594f1	-0.028025122
62	0x3db7e25d	0.08978722
63	0xbbe796fa	-0.0070675584
64	0xbbb8cbc4	-0.005639525
65	0xbd16b182	-0.03679038
66	0x3c9d7139	0.019219028
67	0x3d51b4f9	0.05119798
68	0x3db1e717	0.08686655
69	0xbd085483	-0.03328372
70	0x3b570a66	0.0032812594
71	0xbddce6fe	-0.10786246
72	0xbb9f71e8	-0.0048658736
73	0xbcd7830c	-0.026307605
74	0xbd89b179	-0.06723303
75	0xbd51f158	-0.051255554
76	0x3b84d6df	0.004053935
77	0xbc846348	-0.016160622
78	0x3d6769ca	0.056497373
79	0xbcd50775	-0.026004532
80	0xbdbad840	-0.09123278
81	0x3cc755ed	0.024332965
82	0xbc99948c	-0.01874759
83	0xbdb2fbe3	-0.0873945
84	0x3cb168b1	0.021656366
85	0xbd1dddb5	-0.038541514
86	0xbdb19c79	-0.08672423
87	0x3db64bd9	0.089011855
88	0xbdb6ee77	-0.08932202
89	0x3d23c046	0.039978288
90	0x3c904bcd	0.01761427
91	0xbd500c6f	-0.050793108
92	0xbd64d848	-0.055870324
93	0x3bb6e1fa	0.0055811377
94	0xba7ba8e9	-0.000960006
95	0xbd60cc45	-0.054882307
96	0x3d95e25e	0.07318567
97	0xbd21f2f3	-0.039538335
98	0xbd85aa92	-0.06526674
99	0xbd17b357	-0.037036266
100	0x3cf848b0	0.030308098
101	0xb9e7c3a6	-0.00044205523
102	0xbdbbee53	-0.09176316
103	0x3c535286	0.012898093
104	0xbcb3da4a	-0.021954674
105	0x3d904f5d	0.07046387
106	0x3d0fbd4e	0.035092644
107	0xbda51b70	-0.08061874
108	0x3b9a0a6c	0.0047009494
109	0x3c929448	0.017892972
110	0xbda2908e	-0.07937728
111	0x3d2dfe0d	0.04247861
112	0x3c1c2752	0.009530859
113	0xbc6b66fb	-0.014367814
114	0xbcc237a6	-0.023708176
115	0xbdb51a22	-0.08842875
116	0xbd0a8ab9	-0.033823702
117	0xbcda00f4	-0.026611783
118	0xbd40ce21	-0.04707158
119	0xbd5c73fb	-0.053821545
120	0xbcf81738	-0.030284509
121	0xbd9862bb	-0.07440706
122	0x3c7649e3	0.015032264
123	0xbd92986a	-0.07157977
124	0xb8bc2831	-8.972025e-05
125	0x3d2a23e4	0.041538134
126	0xbc869998	-0.016430661
127	0x3d4cd242	0.050005205

lin1.weight f4 [128, 128]
0	0xbe365b0b	-0.17808168
1	0x3dd067dc	0.101760596
2	0x3db6fb19	0.08934612
3	0x3da27edd	0.079343535
4	0x3df276ed	0.118390895
5	0x3debd538	0.115152776
6	0xbcf3d27e	-0.029763456
7	0xbd0ea88b	-0.034828704
8	0x3dd51b42	0.1040559
9	0x3d80e2f8	0.06293291
10	0x3d9759f4	0.07390204
11	0x3d37527f	0.04475641
12	0x3d8a0364	0.06738928
13	0xbd9ebcd1	-0.077508576
14	0x3c3d4302	0.01155162
15	0xbd7cbc7b	-0.061703186
16	0xbce4c684	-0.02792669
17	0x3d0e87dc	0.034797534
18	0x3ca27523	0.019831246
19	0xbd1d950c	-0.03847222
20	0x3dbe3f8a	0.09289463
21	0xbdc638ee	-0.09678827
22	0x3c5ff38a	0.013668904
23	0x3cb0b335	0.021569828
24	0x3c4697c5	0.012121146
25	0xbd82032e	-0.06348263
26	0xbe47cc1b	-0.19511454
27	0x3dbd99cb	0.09257849
28	0xbd7fe2c3	-0.062472116
29	0xbd89eec0	-0.06734991
30	0x3ce738e7	0.028225375
31	0xba2252a1	-0.0006192122
32	0xbd1398c4	-0.03603436
33	0xbcf322d2	-0.02967969
34	0x3e3ff6b5	0.18746455
35	0x3e73e334	0.2381714
36	0xbc52803d	-0.012847957
37	0x3d21c127	0.039490845
38	0x3d8911f7	0.0669288
39	0x3ce3e09d	0.027817065
40	0x3d98ae15	0.074550785
41	0x3ddb77a1	0.10716177
42	0x3deda0d7	0.116029434
43	0x3d78eecc	0.06077461
44	0x3b0f79e7	0.0021892728
45	0x3dc2ccfb	0.09511753
46	0xbd68ecb6	-0.05686637
47	0xba3e7a1a	-0.00072661194
48	0x3b0d9f6e	0.002160992
49	0xbbf8854c	-0.0075842496
50	0x3b9ab0b4	0.0047207717
51	0xbd19d8fa	-0.03756044
52	0x3dd06480	0.10175419
53	0x3d04875d	0.032355655
54	0x3da1734b	0.078833185
55	0x3de5ef7f	0.11227321
56	0x3d6fb437	0.058521476
57	0x3d18ed2f	0.03733557
58	0xbd8854c0	-0.0665679
59	0x3d134ed9	0.035963867
60	0x3cd5bc82	0.026090864
61	0x3d981206	0.07425313
62	0xbbb7bd1d	-0.005607261
63	0xbdc9836e	-0.09839521
64	0xbcf03d6c	-0.029326163
65	0xbe6d5b67	-0.23179398
66	0xbc412a80	-0.011789918
67	0x3e01d3a6	0.12678394
68	0x3d6774ba	0.056507803
69	0x3a7af898	0.00095737865
70	0x3d0e4b2e	0.034739666
71	0x3ce70156	0.02819888
72	0x3baf0a7f	0.0053418274
73	0xbca8be92	-0.020598684
74	0xbdadd409	-0.08487708
75	0xbc6c5194	-0.014423747
76	0xbd444ac0	-0.04792285
77	0xbe2d0bfe	-0.16899106
78	0x3db21550	0.08695471
79	0xbe2bc57b	-0.16774552
80	0xbc7eb1aa	-0.015545288
81	0x3d1c44d1	0.038151566
82	0x3d07690a	0.033059157
83	0x3d745b03	0.059657108
84	0xbcd13149	-0.025536196
85	0x3dbb08ec	0.09132561
86	0xbe081ceb	-0.13292281
87	0x3d8407c8	0.06446797
88	0xbd59ab04	-0.05314161
89	0x3d9517aa	0.07279904
90	0xbc3246a5	-0.010881101
91	0x3ccd566e	0.025065627
92	0x3bd21140	0.0064107478
93	0x3e38cafe	0.18046185
94	0xbd4f46ab	-0.050604504
95	0xbca234da	-0.019800592
96	0x3d5daed0	0.054121792
97	0xbe452ef3	-0.19256191
98	0xbe3e7745	-0.18600185
99	0x3baa083a	0.005188969
100	0xbd64feb6	-0.055906974
101	0xbd4c333a	-0.04985354
102	0xbdea8576	-0.11451237
103	0xbcca665a	-0.024707008
104	0xbcd68c54	-0.02618996
105	0x3d51a797	0.051185217
106	0x3d060595	0.032720167
107	0xbcab48b9	-0.0209087
108	0xbd909a7b	-0.07060715
109	0xbc45483c	-0.012041148
110	0xbcc2ddc2	-0.023787383
111	0xbd28552f	-0.041096862
112	0x39e69b62	0.00043984788
113	0x3d1acfaa	0.0377957
114	0xbdbbe7f2	-0.091750994
115	0xbd432c86	-0.047649883
116	0x3d041de6	0.032255076
117	0xbce860d6	-0.028366487
118	0xbe19c010	-0.15014672
119	0xbcade59d	-0.021227652
120	0x3dbdc3ab	0.09265836
121	0xbd46fa89	-0.048578773
122	0x3b8c3bdc	0.0042795967
123	0xbe4339c1	-0.19065
124	0xbd69818d	-0.057008315
125	0x3d759b2d	0.05996244
126	0x3db7da99	0.08977241
127	0x3d22725e	0.03965985
128	0x3e3fa9e6	0.18717155
129	0x3c835a52	0.016034279
130	0xbda393a7	-0.07987147
131	0xbd328272	-0.043581434
132	0x3dcc17d4	0.09965482
133	0xbdc155ab	-0.09440168
134	0x3d9a422b	0.07532152
135	0xbdb5eb03	-0.088827156
136	0x3e335752	0.17513779
137	0xbc54236a	-0.0129478965
138	0x3d2c2a53	0.04203255
139	0xbb7fda10	-0.0039039887
140	0x3cce6ab7	0.02519737
141	0x3c0f4a21	0.008745701
142	0xbd067b90	-0.032832682
143	0x3dc0f83d	0.09422348
144	0xbe3f5eb0	-0.18688464
145	0xbcade96b	-0.021229466
146	0x3d340ec1	0.043959383
147	0xbd3fae3c	-0.046797022
148	0xbcca5e7b	-0.024703255
149	0xbdec8818	-0.11549395
150	0xbccf77b9	-0.025325643
151	0xbb4443a1	-0.0029947537
152	0xbe0dd9e0	-0.13852644
153	0xbdc06233	-0.0939373
154	0x3daf4b6b	0.08559307
155	0xbb9aaf69	-0.0047206176
156	0xbcbde88d	-0.023182178
157	0x3c9278fb	0.017879954
158	0xbcccfb4b	-0.02502217
159	0xbbfcc437	-0.0077138203
160	0x3cf9a4e3	0.030474132
161	0xbd5db88a	-0.05413107
162	0x3e1d6263	0.15369563
163	0x3e2ef5a3	0.1708589
164	0xb91093c5	-0.00013787959
165	0x3de4797c	0.11155984
166	0xbcb14083	-0.021637207
167	0xbbeaea22	-0.007169024
168	0x3d04d2a7	0.032427456
169	0x3cc5a19a	0.02412491
170	0xbe21b1dd	-0.15790506
171	0x3b40225d	0.0029317357
172	0x3be958d0	0.007121183
173	0x3b35e05b	0.0027752134
174	0x3d0630d4	0.03276141
175	0x3d74cb96	0.059764467
176	0x3bb3fea3	0.0054930015
177	0xbd5b7226	-0.053575657
178	0x3d1aae5d	0.037763942
179	0x3cea8e4a	0.028632302
180	0xbd7bbe24	-0.06146063
181	0xbd1b74d1	-0.0379532
182	0x3d6291be	0.05531477
183	0xbda190be	-0.078889355
184	0x3e0df5c6	0.13863286
185	0x3cb2f148	0.021843567
186	0xbd08cc1c	-0.03339778
187	0xbd839d52	-0.06426491
188	0xbd2775b5	-0.04088374
189	0xbc97cec0	-0.018531203
190	0xbd6d6a02	-0.057962425
191	0x3e42ee6a	0.1903626
192	0xbd1a8efd	-0.03773402
193	0xbdc7c670	-0.09754646
194	0x3d68f54b	0.056874555
195	0xbd16845f	-0.036747333
196	0x3d5c8f26	0.053847454
197	0xbe4fa332	-0.20277098
198	0xbe2a7917	-0.16647755
199	0x3d92989f	0.071580164
200	0x3d0e1899	0.034691427
201	0xbd54b530	-0.051930606
202	0xbdc70dc5	-0.09719423
203	0x3c99fb2c	0.018796526
204	0x3b58328c	0.0032989113
205	0x3d76f8ff	0.060296055
206	0xbd92e42d	-0.07172427
207	0x3c9ab021	0.018882813
208	0x3daf460b	0.085582815
209	0xbcab3860	-0.020900905
210	0xbc6289da	-0.013826812
211	0xbd7dc0e6	-0.06195154
212	0xbc06b67f	-0.008222221
213	0xbd7dc3a1	-0.061954144
214	0xbdcc4165	-0.099734105
215	0xbd5acad9	-0.053416107
216	0x3d02245d	0.03177296
217	0xbe78fe7f	-0.24315833
218	0xbd984a2b	-0.074360214
219	0xbbc11262	-0.005892084
220	0x3c3e2db4	0.011607576
221	0xbdf320c8	-0.11871487
222	0xbd160a99	-0.0366312
223	0x3d50910d	0.05091958
224	0x3dea3013	0.11434951
225	0x3dd443b8	0.10364479
226	0xbe1aac04	-0.15104681
227	0x3bf65a1b	0.0075180656
228	0x3d93209d	0.07183955
229	0xbc2bc9e7	-0.010485149
230	0x3cef5af7	0.02921818
231	0x3bdfd91f	0.006831303
232	0x3e41ca8e	0.18924925
233	0xbe5794e8	-0.21052897
234	0x3d9d1e6e	0.076718196
235	0xbd4b1400	-0.04957962
236	0x3d64de00	0.05587578
237	0xbd089048	-0.033340722
238	0xbbec1a3a	-0.007205275
239	0x3d347840	0.04405999
240	0x3da97494	0.08274189
241	0x3c1d8b82	0.009615781
242	0x3e5f5b29	0.21812119
243	0xbd37f4af	-0.044911083
244	0xbc1b0dfc	-0.009463783
245	0xbcc086dc	-0.023501806
246	0xbd2bc0eb	-0.041932028
247	0xbca3e6e8	-0.020007566
248	0xbc099443	-0.008397165
249	0x3d4a9c22	0.049465306
250	0xbb82c274	-0.003990466
251	0xbe10601f	-0.14099167
252	0xbc0c9744	-0.008580986
253	0x3c0cb591	0.008588211
254	0xbc852010	-0.01625064
255	0x3caebb95	0.02132968

lin1.bias f4 [128]
0	0x3d63959d	0.055562604
1	0x3d24d475	0.040241677
2	0xb4c75fc9	-3.713633e-07
3	0x3c731072	0.014835464
4	0x9f3c3010	-3.9850305e-20
5	0xb9f4621e	-0.0004661241
6	0xba2f1f5a	-0.0006680392
7	0x3cb07cdf	0.021543918
8	0x3d5eb67e	0.054373257
9	0x3cc224f2	0.023699258
10	0x3d2fac05	0.04288866
11	0xa7cb4dc4	-5.6428132e-15
12	0xb0d3d3c2	-1.5412456e-09
13	0x3d11ddf8	0.035612077
14	0xb8a9e4b4	-8.101147e-05
15	0x3ba4c318	0.00502814
16	0x3d00e314	0.03146656
17	0xaaf3c349	-4.3300977e-13
18	0xb32a29eb	-3.9619334e-08
19	0x3ccff0fc	0.025383465
20	0xbb82696e	-0.0039798534
21	0xbd01d252	-0.031694718
22	0xa84246a2	-1.0784479e-14
23	0x3a5a69ba	0.00083317945
24	0xb9f8f7f3	-0.00047486983
25	0x3c84b2bd	0.01619851
26	0x3d2be6df	0.041968223
27	0x3c570e06	0.013125902
28	0xab445f5b	-6.976552e-13
29	0xadd5f764	-2.432516e-11
30	0xa20c701f	-1.9032894e-18
31	0xbcf52cfa	-0.029928673
32	0x3d3b6a01	0.04575539
33	0xb942ef6c	-0.00018590473
34	0xbb99f93b	-0.0046989
35	0xaee2e7ed	-1.03184884e-10
36	0x3ca3f586	0.020014536
37	0x3d30e462	0.043186553
38	0xb93eb437	-0.00018186947
39	0x3c5c3f95	0.0134428935
40	0x3d39a853	0.045326542
41	0xba942ed7	-0.0011305463
42	0xb85f8e8e	-5.3300108e-05
43	0xa4082be7	-2.9527486e-17
44	0xa9ee8dff	-1.05939556e-13
45	0xbc678f2a	-0.014133254
46	0xb981d00a	-0.00024759799
47	0x3b29b201	0.0025893452
48	0x3ca0a083	0.019607788
49	0x3c80d595	0.015726844
50	0xac88c601	-3.8873353e-12
51	0xb29a1dfb	-1.7941593e-08
52	0x9da52324	-4.371147e-21
53	0xb1679dbd	-3.3704588e-09
54	0x3d5afafb	0.05346201
55	0xb421917a	-1.5047218e-07
56	0xaf8085df	-2.3378185e-10
57	0x9cbbddc0	-1.2431943e-21
58	0x3cd6a8e4	0.02620358
59	0xb1764d6f	-3.5841727e-09
60	0x3d316158	0.043305725
61	0x3d3d3e28	0.046201855
62	0x3c225502	0.009907963
63	0xb29a2dc8	-1.7948778e-08
64	0xbcb52496	-0.022112172
65	0x92be9eea	-1.2029861e-27
66	0xb39c8bba	-7.289732e-08
67	0x3c03d7f5	0.008047094
68	0x3b062ee2	0.0020474722
69	0xb2a4cb71	-1.9184627e-08
70	0x3c63c998	0.013903044
71	0xbbaca6f9	-0.005268928
72	0xa0f3517c	-4.1219723e-19
73	0xb8881360	-6.488594e-05
74	0x3d026c1e	0.03184139
75	0xaa79ccc5	-2.2186686e-13
76	0x3b2c2121	0.0026264864
77	0x3c9d65d7	0.0192136
78	0x3d507adf	0.05089843
79	0xa67f642e	-8.8606666e-16
80	0xb641c3f5	-2.8873303e-06
81	0x8871835f	-7.2677725e-34
82	0xa239e0df	-2.519122e-18
83	0xbccc3370	-0.024926871
84	0xb7af722f	-2.0914797e-05
85	0xb4407465	-1.7923738e-07
86	0x97289a82	-5.4478744e-25
87	0xbb874ad3	-0.004128793
88	0xb9ae69cd	-0.00033266694
89	0x8c45ff63	-1.5253181e-31
90	0x3d0971bd	0.033555735
91	0xbba85d39	-0.005138066
92	0xb260e399	-1.3090266e-08
93	0x3cd6b00d	0.026206994
94	0xaf03aa29	-1.1974834e-10
95	0x3d3b914d	0.045792866
96	0xb742937e	-1.1597642e-05
97	0x3d330b61	0.043712024
98	0xb9804885	-0.00024468094
99	0xbbd1ea1f	-0.0064060832
100	0xb8d7e6f6	-0.00010295019
101	0xb9ea92d1	-0.00044741345
102	0x3cf01094	0.02930478
103	0xbd146d44	-0.036237016
104	0xa308e982	-7.422022e-18
105	0x94f796d0	-2.5000111e-26
106	0x3d085dc3	0.033292543
107	0xa785bc25	-3.7118902e-15
108	0x3d2132bf	0.039355036
109	0x8d398d1c	-5.717738e-31
110	0xb1a6a56a	-4.8500413e-09
111	0x3cc38547	0.023867263
112	0xb54e3f90	-7.6833476e-07
113	0x3d3ccabb	0.046091776
114	0x96d6494d	-3.4619824e-25
115	0xb8f1d3a0	-0.00011531194
116	0x850ff7a0	-6.769309e-36
117	0x3c86b118	0.016441867
118	0xa0ccdd59	-3.470542e-19
119	0xbaefb9b0	-0.0018289592
120	0xae83d55a	-5.995089e-11
121	0x3c3d17f6	0.011541357
122	0x3ca1da35	0.01975737
123	0xbc79e557	-0.015252433
124	0x3d42ddfd	0.047574986
125	0x3d87ed9e	0.06637119
126	0xb4b1d777	-3.312559e-07
127	0x3b889929	0.0041686487

lin2.weight f4 [2, 128]
0	0x3e7f50c7	0.24933158
1	0x3e6b8f66	0.23003921
2	0xb26bbd1e	-1.3721801e-08
3	0xbd9d213e	-0.07672356
4	0xb5bc61bf	-1.4035539e-06
5	0x99924e7e	-1.5127749e-23
6	0xba8aacee	-0.0010580102
7	0x3e19337c	0.14961046
8	0x3e1b9808	0.15194714
9	0x3e525449	0.20539965
10	0x3e687829	0.22702087
11	0xb51b60a0	-5.788261e-07
12	0x30ff087d	1.8556104e-09
13	0xbeaa29d5	-0.3323504
14	0xb5b32832	-1.3348238e-06
15	0x3e532ad1	0.20621802
16	0x3e5facbb	0.21843235
17	0x276a8b36	3.254949e-15
18	0xb92dd3ba	-0.0001657744
19	0xbe6cd839	-0.23129357
20	0x3b18d671	0.0023321176
21	0x3e2d9acd	0.16953583
22	0x8000bd44	-6.7896e-41
23	0x3e6abf77	0.229246
24	0xbacd56bc	-0.0015666108
25	0x3e8c9f21	0.27465156
26	0x3e614b46	0.22001371
27	0xbeb7abaa	-0.35873157
28	0x34b6072c	3.390536e-07
29	0x9a4118db	-3.9931543e-23
30	0xb01fd067	-5.814002e-10
31	0x3ea58793	0.32329997
32	0x3eb3d413	0.35122737
33	0xbabe9429	-0.0014540005
34	0x3def2cc7	0.116784625
35	0xb824add7	-3.9262548e-05
36	0x3e9ea62f	0.30986163
37	0xbeb0a965	-0.34504238
38	0x3bdcdc86	0.0067401556
39	0x3e7d12b8	0.24714172
40	0xbed2290c	-0.4104694
41	0x3b29f80f	0.0025935208
42	0x36aa3fd9	5.0738277e-06
43	0x0000c6f4	7.1371e-41
44	0x2ae8b2ee	4.1335636e-13
45	0x3e807622	0.25090128
46	0xb7a25b36	-1.9354378e-05
47	0xbebcde32	-0.36888272
48	0x3e71f5e1	0.23628952
49	0xbea50595	-0.3223082
50	0x2c5e9c94	3.1635016e-12
51	0x32bd2b66	2.2022231e-08
52	0x0000484e	2.5938e-41
53	0xb7b90403	-2.2055587e-05
54	0x3e9dd3b2	0.30825573
55	0x3799bca7	1.832687e-05
56	0x37cd18c9	2.4449446e-05
57	0x32301edb	1.0251564e-08
58	0x3e45f225	0.19330652
59	0x34bfef32	3.575056e-07
60	0x3e82c806	0.2554323
61	0x3e0577f6	0.13034043
62	0x3e1e4cf2	0.1545904
63	0xa4d5aaa0	-9.2663075e-17
64	0x3e5065e3	0.20351367
65	0xac21b8f0	-2.2982137e-12
66	0xb12b94e7	-2.4968416e-09
67	0xbc48e9df	-0.01226279
68	0xbea91540	-0.33024025
69	0xb785e12d	-1.5959691e-05
70	0x3e581e9e	0.2110543
71	0xbea63f17	-0.3247001
72	0x02af7efe	2.5786829e-37
73	0x3b31d6da	0.0027136118
74	0xbeaf0187	-0.34180853
75	0x36a49dc1	4.905946e-06
76	0x3e5f3639	0.21798028
77	0xbe868011	-0.26269582
78	0xbea0402e	-0.31298965
79	0x25906bf5	2.5053173e-16
80	0xb8556aac	-5.0882503e-05
81	0x87101ada	-1.0841247e-34
82	0x3b209eda	0.0024508745
83	0x3e32dc81	0.17466928
84	0x000050af	2.8944e-41
85	0xba6962ff	-0.0008902996
86	0x8000b0cb	-6.3421e-41
87	0xbbbda4c1	-0.0057874625
88	0x3b967fa0	0.004592851
89	0x8d3f8fc9	-5.9029494e-31
90	0x3df4934e	0.11942159
91	0x3e720c15	0.23637421
92	0x39675a75	0.00022063575
93	0xbeb6fb08	-0.35738397
94	0x800023ff	-1.2913e-41
95	0xbea14208	-0.3149569
96	0xb75f84ec	-1.3322784e-05
97	0x3e3755a6	0.17903766
98	0xbb44f236	-0.0030051596
99	0x3e71dfd7	0.23620544
100	0x3aaaedea	0.0013040875
101	0x3ab7a759	0.0014011665
102	0x3e23774c	0.15963477
103	0x3e66e202	0.22547153
104	0xa325125c	-8.948556e-18
105	0x0eb773c6	4.522447e-30
106	0x3e6f1cc3	0.23350815
107	0x322fee98	1.0240591e-08
108	0x3e059999	0.13046874
109	0x0d265adb	5.1262063e-31
110	0x3778810e	1.4812e-05
111	0xbea1b781	-0.31585315
112	0x34722558	2.2551592e-07
113	0x3e5c48e9	0.21512188
114	0x17a452d0	1.0619156e-24
115	0x3dfe3667	0.1241272
116	0x025235d8	1.5443816e-37
117	0xbd5646d5	-0.052313644
118	0x220f2af5	1.9402855e-18
119	0x3b007f06	0.0019606962
120	0xb7b3d4fd	-2.1437643e-05
121	0xbea0cdcb	-0.31407008
122	0x3e37154b	0.17879216
123	0x3e758183	0.23975186
124	0x3e5e8fde	0.21734568
125	0xbe918535	-0.2842194
126	0xa50adccc	-1.2044401e-16
127	0x3e27f66e	0.16402599
128	0xbe469d4e	-0.19395944
129	0xbe050b84	-0.12992674
130	0xb1b8189c	-5.3579026e-09
131	0x3d9d288d	0.0767375
132	0x35b3146b	1.3342482e-06
133	0x96f14ec5	-3.898536e-25
134	0xbbf6fc08	-0.0075373687
135	0xbc9afc89	-0.018919246
136	0xbe3e94c7	-0.18611442
137	0xbdbcb1dd	-0.09213612
138	0xbe13a580	-0.14418602
139	0x35134437	5.4861033e-07
140	0xb0fda6ae	-1.8455546e-09
141	0x3e81645e	0.25271887
142	0xb971f21d	-0.00023073745
143	0xbe69eec6	-0.22844991
144	0xbe20f2bf	-0.157176
145	0xa76b0a5e	-3.2618421e-15
146	0x392d904a	0.00016552318
147	0x3e8937f4	0.268005
148	0xbb1918ea	-0.0023360797
149	0xbe3026b8	-0.1720227
150	0x00003287	1.8126e-41
151	0xbe68a8a8	-0.22720587
152	0x3ace5033	0.0015740454
153	0xbe67a82f	-0.2262275
154	0xbeb71ecd	-0.35765687
155	0x3eb5fe04	0.3554536
156	0xb4b37974	-3.3429717e-07
157	0x1a3fbd09	3.9650576e-23
158	0x300f402c	5.211429e-10
159	0xbeae87de	-0.34088033
160	0xbeab5aa5	-0.33467594
161	0xb9802df1	-0.00024448292
162	0xbe154e7c	-0.1458072
163	0x382426c9	3.913677e-05
164	0xbeae9115	-0.34095064
165	0x3ec07a95	0.37593523
166	0x3bf14521	0.007362977
167	0xbe92a060	-0.2863798
168	0x3e941cee	0.28928322
169	0xbb274b51	-0.002552707
170	0xb6939bfb	-4.3991e-06
171	0x00016628	1.28482e-40
172	0xaab5ccc9	-3.2294157e-13
173	0xbeaa5635	-0.33268896
174	0x37a1b60a	1.9277464e-05
175	0x3ecca2b2	0.39967877
176	0xbe518652	-0.20461395
177	0x3ea21fc9	0.31664875
178	0xac5e9c56	-3.1634881e-12
179	0xb2bd2ce8	-2.2022917e-08
180	0x800092c7	-5.2654e-41
181	0xb78b1dfa	-1.658405e-05
182	0xbe53082d	-0.20608588
183	0xb7948840	-1.7706421e-05
184	0xb7cf238a	-2.4692872e-05
185	0xb217a754	-8.827403e-09
186	0xbe09e775	-0.134672
187	0xb4bef56b	-3.5568823e-07
188	0xbe7250b1	-0.23663594
189	0xbddccb21	-0.10780931
190	0xbe4734e1	-0.19453765
191	0xa451d974	-4.550384e-17
192	0xbe2ed27c	-0.17072481
193	0x2c127192	2.0810892e-12
194	0x306f28fe	8.7005947e-10
195	0x3c1f3f94	0.009719748
196	0x3eb984cc	0.36234128
197	0x3785a136	1.5929905e-05
198	0xbe58d834	-0.21176225
199	0x3eb0c0be	0.3452205
200	0x8259e7a1	-1.6009116e-37
201	0x3af94757	0.0019018453
202	0x3e9ea6de	0.30986685
203	0xb6a41240	-4.8897055e-06
204	0xbe64ca7f	-0.22342871
205	0x3ea8db85	0.3297998
206	0x3eae5836	0.34051675
207	0xa58cc036	-2.4416376e-16
208	0x38557952	5.0896146e-05
209	0x06c1cd17	7.2899884e-35
210	0x3b21ee1b	0.0024708572
211	0xbe307dd5	-0.17235501
212	0x8000bc8c	-6.7638e-41
213	0x3a5b5c49	0.00083679386
214	0x8000c657	-7.1151e-41
215	0x3bbd9c48	0.0057864524
216	0xbace3c48	-0.0015734518
217	0x0d525345	6.481148e-31
218	0xbdd26477	-0.102730684
219	0xbe6731fb	-0.2257766
220	0xb95adc87	-0.00020872253
221	0x3ec61027	0.38684198
222	0x0000029a	9.33e-43
223	0x3e965bc4	0.29366887
224	0x376280e2	1.3500658e-05
225	0xbe956cdd	-0.2918462
226	0x3b44f3e0	0.0030052587
227	0xbe947bcb	-0.29000697
228	0xbab26efb	-0.0013613397
229	0xbab7a38f	-0.0014010536
230	0xbe06060d	-0.13088246
231	0xbe706a16	-0.23477969
232	0x232514b8	8.949055e-18
233	0x8e811b9b	-3.182754e-30
234	0xbe69a235	-0.22815783
235	0xb234d4cb	-1.05257625e-08
236	0xbdfc4892	-0.12318529
237	0x8d23e652	-5.050549e-31
238	0xb77afbf4	-1.4959824e-05
239	0x3e4a5bed	0.1976163
240	0x3436ba60	1.7017874e-07
241	0xbe7eae74	-0.24871236
242	0x97a4a952	-1.0640994e-24
243	0xbe0bf07f	-0.1366596
244	0x82299825	-1.2459822e-37
245	0x3d565dfb	0.05233572
246	0xa20f2b06	-1.940289e-18
247	0xbb007d35	-0.001960588
248	0x3778bbf9	1.4825718e-05
249	0x3e988e5c	0.29796112
250	0xbe1e478b	-0.15456979
251	0xbe566c18	-0.20939672
252	0xbe83bbe4	-0.25729287
253	0x3ea92928	0.33039212
254	0xa4392076	-4.0142976e-17
255	0xbe3f97fc	-0.18710321

lin2.bias f4 [2]
0	0xbd88a9cf	-0.066730134
1	0x3cd24718	0.025668666
