baseline/experiments/results/MUTAG/latest_MUTAG.pth (torch, 73111 bytes, 6 tensors)

conv1.lin.weight f4 [128, 7]
00000000: 167d c4bd 2f37 89be f652 a13e 5ed2 82be
00000010: 14ba 5fbe e414 063e 3763 14be 63ba 62bc
00000020: 8014 8a3e 339b 353e b8a5 e13e c11d 42be
00000030: 6111 ad3e 4e68 7d3e 8d32 c6be 9cdf 7bbd
00000040: b756 643e 5956 283e f56e 8d3c 356a 18be
00000050: f440 afbd 7d8d 44be c31b 72bd c559 8c3d
00000060: 928f a53b 2f18 af3d bae6 433d 3901 88be
00000070: bb66 9ebe 6429 8d3e 2984 c63d aa45 c4bd
00000080: 4e0e 42be a1dd 883d b7ea 1d3d bf4e b33e
00000090: f694 33be b24a e9bc f01b bb3c 0fa7 6fbe
000000a0: 72dd c0be 16c2 053e 8489 8e3e 1123 33be
000000b0: ec55 91be 4ea1 c9bc c6c0 473e d498 013e
000000c0: 8a8b 68bd b406 b8be f95d 89be 7096 eabd
000000d0: cc67 09be d25b 63bd c9c7 053d 289c 503b
000000e0: f038 953d 818b c6be 1e2e b8be e45a 3ebe
000000f0: 7b1c 833e 2d27 c7bd 0200 423e 8305 c0be
00000100: f795 aa3e 95b5 823e 78b0 433e 648e 323e
00000110: fc4d 79bd 3859 01be 9bc1 70be db63 053d
00000120: d658 83be 5e8e da3d 4d3d a13d d23d 8dbe
00000130: 1fbb 4f3e 3842 783e babf d03c 728d 933e
00000140: 377d 17be d74c 91b9 47cc abbd fb13 54be
00000150: d086 b8be 26ba 133e 70ea 033e 42cd 7f3e
00000160: ceb1 e2bd a4c7 cebc 6d52 223e 082c 3ebd
00000170: 3067 f03e 86f7 4e3e 9cee 5bbe 2375 90be
00000180: 9373 d63e 007e 183e 9d30 91bd b74b f6bd
00000190: 8686 6fbd 4af6 973e d899 fbbd 2106 a93e
000001a0: 6339 603e da1c af3e 813a 1dbe 3628 0cbe
000001b0: 542c 31be 5255 613d 8b01 18be e415 883c
000001c0: aef7 793e 5940 70be df29 8fbe 536f e8bd
000001d0: e2e2 963d 9c24 c8bd 7aa9 9e3d 0083 70be
000001e0: 979a 9bbe 4d3b ab3e 6497 f3bd 5b50 66bd
000001f0: 3e9b a0be 1046 f33d 7b55 c0be 5de3 503d
00000200: 5326 543e 6873 823e 7f67 cebd 827e 6e3e
00000210: 8767 bdbc a79b 34be 6520 bc3e 2136 813e
00000220: 1c0a 843e 7d2b 873d fb8c b13d 5ef1 e33d
00000230: 1e04 10be 3bac 833e 5677 c63d 8517 d93d
00000240: 3889 c93c 5190 013d c89a 8b3d d7f8 103e
00000250: 7555 a43e 64ac e83c ab1e bd3e 98e8 603c
00000260: 4268 933e 243d 113c c9c1 3bbe 734a 713e
00000270: 309a 9fbd ec60 0ebe c31e 3f3e d78d c3bc
00000280: 15b1 e5bc 5737 883e b40b c03e f1ba 6d3e
00000290: 60d5 e13e 741e d43d af47 d43e 87de 04be
000002a0: 4ecc 093e f06b 1e3e c2be 343e c002 70be
000002b0: 8aa5 723e f3d5 97be b3e0 3b3e cdb3 b23d
000002c0: 8165 283e 7e7f 93bd 2a87 f0bd 2a78 9abc
000002d0: 75bd 28be f108 10bd a821 78bc 78f4 b8be
000002e0: c90c 11bd 6937 e7bc 2dd4 373d 0bb3 173d
000002f0: 5e48 62bd 3cf2 80be 3ace 603e 6034 383e
00000300: 3850 803e fb72 07be 388d 7bbe 8a36 043e
00000310: f141 72be 5fbb 86be bcf2 57be 9881 573a
00000320: 4264 1dbe 4b13 ebbc 4fa3 0f3e 5937 a03e
00000330: 131b 673e 175d 95be 61c3 773d 498d a9bd
00000340: 0e7e 403e 9c20 f73d 475f f63a 0973 32be
00000350: b659 9ebd 76cf 47be a22a 81be d947 26be
00000360: 2bdc 153e 13f4 ffbc 2cde c93e ea08 6d3e
00000370: 5d7d 42bd 4507 ebbd ce52 843e a911 0a3e
00000380: 50ef 4abe b3d5 693e 7c34 173a 16fa 4bbe
00000390: 74e6 92bd 6481 a43e 38f9 f63d 2957 323e
000003a0: 31fa 323e 5181 4bbd ea32 91be 73cd 20bd
000003b0: 8f8e 22bc f13a c5bd 0d76 8c3e dbc1 3dbe
000003c0: 563e 9a3e 993b cabd 90d6 003e c978 dbbe
000003d0: 6d5f a6be 22b1 793c 4f2e f33e 7ef2 f33c
000003e0: 1546 0abe accc 973d c423 e53e 22cf 043e
000003f0: 7a19 abbd f621 c03e 7edb 93bb 3e24 d23e
-0.09594171 -0.26799914 0.31508607 -0.25551122 -0.21848327 0.13093907 -0.14490972 -0.013838383
0.26968765 0.17734985 0.44071746 -0.18956663 0.33802322 0.2474682 -0.38710442 -0.061492547
0.22298704 0.16439189 0.017264822 -0.14884265 -0.08557311 -0.19194598 -0.059108507 0.0685306
0.0050525153 0.085495345 0.04782746 -0.26563433 -0.30937752 0.2757064 0.09693176 -0.095836
-0.1895077 0.06682897 0.03855392 0.35021016 -0.17537293 -0.028478 0.02284047 -0.23403572
-0.3766895 0.13062319 0.2783929 -0.17493846 -0.28385866 -0.024613049 0.19507131 0.12655956
-0.0567737 -0.35942614 -0.26829508 -0.11454475 -0.13418502 -0.05550749 0.032661233 0.0031831358
0.072862506 -0.38778308 -0.35972685 -0.1858936 0.25607666 -0.09724269 0.18945315 -0.37504205
0.3331754 0.2552916 0.19110286 0.1743713 -0.060865387 -0.1263169 -0.23511355 0.032565933
-0.25653714 0.10671686 0.0787302 -0.27586228 0.20286225 0.2424401 0.025482047 0.28818852
-0.1479386 -0.00027713805 -0.08388572 -0.20710747 -0.36040354 0.14426479 0.128824 0.24980643
-0.1106907 -0.02524168 0.15851755 -0.04642871 0.46953726 0.2021161 -0.21477741 -0.28214368
0.4188505 0.14891815 -0.070893504 -0.1202616 -0.0584779 0.2968009 -0.12285203 0.33012488
0.21896891 0.342017 -0.15354349 -0.13687214 -0.17302066 0.05501301 -0.14844339 0.016612
0.24410889 -0.23462047 -0.27961633 -0.113493584 0.07367493 -0.09772608 0.07747169 -0.23487473
-0.3039138 0.3344368 -0.1189411 -0.056228977 -0.3136844 0.11878598 -0.37565216 0.05099808
0.20717745 0.25478673 -0.10078334 0.23290446 -0.023120655 -0.17637502 0.36743465 0.2523661
0.25788963 0.066000916 0.08669468 0.111300215 -0.1406407 0.2571734 0.0969073 0.10600189
0.024601564 0.03163177 0.068166316 0.14157425 0.3209645 0.028402515 0.3693746 0.01372733
0.2879048 0.008864675 -0.18335642 0.23563556 -0.07793081 -0.1390416 0.18664078 -0.023871345
-0.02803854 0.2660472 0.3750893 0.23215844 0.44108105 0.10357371 0.4146094 -0.12975512
0.13456842 0.15470862 0.17650893 -0.23438549 0.2369596 -0.29655418 0.18347435 0.087257005
0.1644497 -0.072020516 -0.117445305 -0.018856127 -0.16478522 -0.035164777 -0.015144743 -0.36124015
-0.035412584 -0.028224664 0.04488008 0.037035983 -0.055244796 -0.2518481 0.21953669 0.1798873
0.25061202 -0.13227455 -0.2456559 0.1291143 -0.23657967 -0.26314828 -0.2108869 0.000822091
-0.15370277 -0.028695723 0.14027141 0.31292227 0.22568922 -0.29172584 0.060489062 -0.08278901
0.18798086 0.120667666 0.0018796705 -0.17426695 -0.07731955 -0.19512734 -0.2522784 -0.16238345
0.14634769 -0.031244313 0.39427316 0.23147932 -0.047482837 -0.11475996 0.25844425 0.134833
-0.19817853 0.22835426 0.00057680137 -0.19919619 -0.07172862 0.32129967 0.120592535 0.17416061
0.17478253 -0.049683873 -0.28359157 -0.03925843 -0.009921684 -0.09630383 0.27433816 -0.18530981
0.30125684 -0.098746486 0.12581849 -0.4286559 -0.3249468 0.015239986 0.47496268 0.029778715
-0.13503297 0.07412085 0.4475385 0.1296964 -0.08354469 0.3752591 -0.0045122495 0.41043276

conv1.lin.bias f4 [128]
00000000: 7cce 95be 0f73 923d c4e1 823e d5af 6dbe
00000010: cc3f 3e3e b1f3 153e d32f b03e a6fd 38be
00000020: c7c3 4d3e e9a1 b03e 4107 5ebd f194 033d
00000030: a4e0 57bd 480f a0be 376f 793e ca36 af3e
00000040: 083f b83e 6b5d a23e bcfa 52be d1fb 53be
00000050: a317 423e 38a0 973e 46a7 a73d c174 64be
00000060: b921 123e 8773 9c3d 82a9 bcbd 708f 24be
00000070: ad91 5d3e 9ba3 173e a549 823e 7ab4 8abe
00000080: 79e3 5abd 86a7 5cbe d11e a5bd a34e cdbd
00000090: 3f4b bf3e 9756 703e be90 a7be 8bd7 0c3e
000000a0: cf3e c63d 9777 a7be 150a c0bc 1f36 a53d
000000b0: 1128 bd3e 1e00 16bd ef31 7cbd 6d22 8f3e
000000c0: e0f0 e5bd 206d bcbc 2797 263e 00b9 92be
000000d0: da7d 633e 9d1e 70be 5bd3 a4bd e2f6 4d3e
000000e0: d992 26bc e3b4 bfbe 099f 303e 6c74 9dbe
000000f0: b88c 46be 3047 62bc 7e77 153e 01cf 603e
00000100: 9aef a53e 1332 223e 825d 803e 35b6 1cbe
00000110: 285c 14be 46ee 6b3e c8e9 4f3e 2e92 643e
00000120: f03f 7f3d 371c f7bd 48ef 93be b2bc debd
00000130: 7391 2bbe 7077 68be 3c03 ec3c b020 2fbe
00000140: 78da 353e 0264 8ebe b212 7bbe 9008 50be
00000150: 2cf6 38be 8092 423e 5b3a 9d3e 8b88 53be
00000160: 9a8a 30be 0e8d a6be d310 193e f80e e73d
00000170: 30e1 d2bd fe2d aa3e 57d8 d2bc be6c a83e
00000180: 7c7f 25be 9ed5 303e 83ef 533d a2e3 31be
00000190: 6532 bbbe 4855 1ebe 1ce2 41be e817 8dbc
000001a0: 0bf2 3d3e b508 b83e 40bc 8c3e a10f 623d
000001b0: 0d7d 50be 56fd 61be bb5e 163d daee 113d
000001c0: 2511 8ebd fbc3 a83e 2dee 573e 1894 81be
000001d0: 960a 303d 22ae ca3c 49b9 bcbe f329 983e
000001e0: ce38 5c3e 4b8a 833e 7597 303e c272 98bd
000001f0: 6c03 5cbe 6893 43be 590f 39be 2ba7 8e3e
-0.29259098 0.07150852 0.2556287 -0.23211606 0.18579024 0.14643742 0.34411487 -0.18065509
0.20094214 0.34498528 -0.054206137 0.032124463 -0.05270447 -0.3126166 0.24358831 0.34221488
0.3598559 0.31711897 -0.2060346 -0.20701529 0.18954329 0.29614425 0.08186202 -0.22310163
0.14270677 0.076392226 -0.092120185 -0.16070342 0.21637602 0.14808504 0.2544681 -0.27090818
-0.05343959 -0.2154828 -0.080625184 -0.100247644 0.37362096 0.23470531 -0.32727617 0.13754098
0.096799485 -0.32708427 -0.023442307 0.080669634 0.3694463 -0.036621206 -0.061571058 0.27955952
-0.11227584 -0.023001254 0.16268598 -0.2865677 0.22215977 -0.23449178 -0.08048125 0.2011371
-0.010166847 -0.37442693 0.17248167 -0.30752885 -0.19389617 -0.013810918 0.14596364 0.21953966
0.32409364 0.15839414 0.2507134 -0.15303881 -0.1448828 0.23040113 0.20304024 0.22321388
0.062316835 -0.120659284 -0.28893495 -0.108758345 -0.16754703 -0.22701812 0.028810136 -0.17102313
0.1775912 -0.27810675 -0.2451885 -0.20315766 -0.18062657 0.19001198 0.30708584 -0.20657556
-0.17240372 -0.3252949 0.14947824 0.11282152 -0.10296857 0.33238214 -0.025737925 0.32895464
-0.16161913 0.17268988 0.051742088 -0.17371991 -0.36561885 -0.1546222 -0.1893391 -0.017223313
0.18549363 0.35944143 0.27487373 0.055190686 -0.20360203 -0.22069296 0.036711436 0.035628177
-0.06936864 0.3296202 0.2108695 -0.253083 0.042978846 0.024741236 -0.3686011 0.29719505
0.21506044 0.25691447 0.17245276 -0.07443763 -0.2148568 -0.190992 -0.18072261 0.27861914

lin1.weight f4 [128, 128]
00000000: d05e edbc 4dce 5abd 4866 bc3c c347 a7bd
00000010: f570 88bd 683d cf3d 019e bfbc c534 2f3c
00000020: 0190 793d 3cf8 21bd 6757 193c 9516 3d3c
00000030: 29c1 d83c f08d e3bd 5676 80bd bb44 d7bc
00000040: e3c0 573d def1 d8bb aec7 b33c ab01 d7bd
00000050: b566 cabc cf74 dcbc 4a08 a13c 6051 ecbd
00000060: 546b 1e3c 1053 a03d d0fb ac3d 4f70 613d
00000070: 4c9e a13d 6d8e 93bc aa25 bc3c 330a 5fbd
00000080: c491 65bc c0ed afbc 1255 9b3d 372f 28be
00000090: 9e37 90bd e8c9 ae3d 0751 1a3d 84f2 bcbd
000000a0: 43b1 743d 05d9 9cb8 50b7 a0bd 534c 35bb
000000b0: 3061 bd3d 6886 29bd 66ed e13c 051b 623b
000000c0: 4337 68bc 37b6 4ebd ed2c 9cba 4a53 993c
000000d0: 5277 b03d 8f24 103c 002a 23ba 5543 e5bb
000000e0: 811e 14bd 1528 643b 372e 25bc bc57 8dbd
000000f0: 2233 cebd d4b7 01be 5013 153d 1108 c53c
00000100: 7ff8 5a3c 9033 b83b 670a 39bd 6db4 f63c
00000110: 9619 65bb d2a5 f3bc 2123 c53b a83c 83bd
00000120: 8dbd 5ebd c87d 053e 2a32 01bd 952f cabd
00000130: 347f 463b 0781 013d 82ef 3abc b9e5 15bd
00000140: 8bd4 9f3c c50e b03d 52e8 a4bc d11e 6bbc
00000150: a48c 0abd e338 27bd 505c 813a b3ba ddbc
00000160: 4ac3 f13c 057a 973b aa96 4dbd cf6e c639
00000170: d62f a73c 130b fa3d c85c 29b9 5621 2fbd
00000180: 49bb 3a3d ec04 f83d ed07 563d 053b b8bc
00000190: 4f93 bc3c d004 6f3c 4c09 fa3d 2745 b1bb
000001a0: a6ef 873d 5c3e ebbc a167 72bc ace6 b83d
000001b0: d370 80bd 5fab 1abe bf1d 93bc 9c46 03be
000001c0: 98d6 96bd 05c5 f43c fc9f 50bd 397e 613d
000001d0: 76cf 21bd 8982 5b3d 6801 583c e760 a93c
000001e0: 7e0b 923d a501 2d3d 945b c5bc 4fad 9fbd
000001f0: d299 7c3d a8dc 88bc 02e1 5dbc 7624 4c3c
00000200: 86da 953b 3338 3a3b 2bc9 f6b9 2f7d 193c
00000210: c102 28ba 41f1 4a3c 7bd1 9dbb bc90 a23b
00000220: 55a8 20bc 4742 77bb 330e f23b b4b0 203c
00000230: 38d9 3b3c 90fc b3bb 2255 0dbc c46e 46bc
00000240: 7baa 98bb 487d 5dbb 8b74 943b e3d7 5c3b
00000250: 1885 59bb 37d1 a0bb c1ff 253b c8b8 5e3c
00000260: b5ad a3bc 7970 93bb 5745 98bb 908f 733b
00000270: f6b2 ba3b dc1b 00bc b73e c33a 5733 49bc
00000280: 6dbe 1dba 4cb4 4a3b f6b7 22bc ab31 9d3b
00000290: d28a 82bc d7e9 8ebb 9a51 9a3b 6d23 c13b
000002a0: 89ea 39bb 5d7a e53b 69ac 95b8 463e 6bbc
000002b0: f91f 19bb 8ff0 1e3a 938a 743c c7bf a6bb
000002c0: 74d2 7ebb 6dde 863b 8e50 8dbb c36d 123c
000002d0: 103c 293c 9178 ab3c 5ec3 623b 561b 1d3b
000002e0: 5597 eb3b 0922 9d3b cdf5 e839 6fec ae34
000002f0: 2ab5 ce3b a84a 00bc 12cc 90bb 77b2 92bb
00000300: 3e1a 4fbb 7f91 d7ba 038a 40bc 78f3 9c3b
00000310: 874a 833b a110 83bc 57b7 8aba e873 84bb
00000320: d3cb c03a ad06 5dba 3651 f539 2549 aa3b
00000330: d3fc 16bc f350 11b9 4f51 ee3b aa5e a5bb
00000340: 3f7e 53bc 81b8 123b d183 883b d46a 8f3b
00000350: f0ce 373b 596a 94bb 1221 55bb 899c 953b
00000360: 28e9 7eb9 ac90 9939 7f91 283c f5d3 d63b
00000370: 0c10 cc3c a77d 67bb f0ef 89bb 7422 a2bc
00000380: 6d05 8f3b 8b1b 0ebb ab8b 87bb 214a cb3b
00000390: 35b7 833b 9f99 b0ba 611b c8ba ac92 933c
000003a0: 5ba8 0f39 4ba4 1fbb 6f54 a0bb 3401 153c
000003b0: b77d a03b 9768 2cba b5d4 923b eb37 edba
000003c0: fed0 92ba 6bb3 d93b cd10 8cbb ca26 883c
000003d0: e60e 89bc d78d d53b 8636 823b a16a 0abc
000003e0: 5801 82bb 6be9 0dba 5f2f 9bbb de4c 2bbc
000003f0: 4bcf 103c 439a af39 2bc1 9a3a bea4 a4bb
-0.028975874 -0.0534194 0.02299799 -0.08167984 -0.0666217 0.10119134 -0.023390772 0.010693734
0.06092835 -0.039543375 0.009359217 0.0115410285 0.026459293 -0.11111057 -0.06272571 -0.02627789
0.052674185 -0.0066206297 0.0219458 -0.10498365 -0.024707178 -0.026911167 0.019657273 -0.115389585
0.009669144 0.07828343 0.08446467 0.055038746 0.07891521 -0.01801225 0.022967178 -0.054453086
-0.014011804 -0.021475673 0.07584585 -0.16424261 -0.07041858 0.08534604 0.03767493 -0.09225944
0.059739362 -7.479083e-05 -0.07847464 -0.00276639 0.09247053 -0.041387945 0.02757902 0.0034500968
-0.014173332 -0.050466742 -0.0011915244 0.018716473 0.086165085 0.008797779 -0.0006224215 -0.006996552
-0.036161903 0.003481393 -0.010081819 -0.069015 -0.100683466 -0.12667781 0.03639537 0.024051698
0.01336491 0.005621381 -0.045175936 0.03011533 -0.0034957877 -0.029742155 0.0060161506 -0.06408054
-0.05437999 0.13036263 -0.03154198 -0.09872357 0.0030288221 0.03161719 -0.011409642 -0.036596034
0.019510528 0.08596567 -0.02013031 -0.014350609 -0.03382553 -0.040825736 0.000986943 -0.027066564
0.029512066 0.0046227 -0.050192513 0.00037848062 0.020408552 0.122091435 -0.0001615166 -0.0427564
0.045588765 0.12110314 0.052253652 -0.02248908 0.023019461 0.01458855 0.122088045 -0.005409855
0.06637506 -0.028716259 -0.014795215 0.09028372 -0.062715195 -0.15104435 -0.01795852 -0.12819904
-0.07365149 0.029879102 -0.050933823 0.055052016 -0.03950449 0.053591285 0.013183929 0.02067609
0.07131098 0.042237896 -0.02409152 -0.07796728 0.061670132 -0.01670678 -0.013542416 0.012459865
0.004573169 0.0028414845 -0.00047070658 0.009368225 -0.0006409102 0.012386621 -0.004816232 0.0049611013
-0.0098057585 -0.0037728713 0.0073869466 0.009807754 0.011465363 -0.0054927543 -0.008626254 -0.0121113695
-0.0046589947 -0.0033796597 0.0045304946 0.0033698014 -0.0033190902 -0.004907753 0.0025329443 0.01359386
-0.01998029 -0.004499492 -0.004646938 0.0037164427 0.0056976033 -0.007819142 0.001489601 -0.012280307
-0.00060174504 0.003093022 -0.009931555 0.0047971806 -0.015935335 -0.004361372 0.0047094347 0.0058941157
-0.0028368554 0.007003112 -7.1369876e-05 -0.014358109 -0.0023365004 0.00060630677 0.014925617 -0.0050887796
-0.0038882764 0.0041158707 -0.0043125814 0.008937302 0.010329261 0.020931514 0.0034601311 0.0023972592
0.007189671 0.004795317 0.00044433624 3.2582054e-07 0.0063082175 -0.007830299 -0.0044188583 -0.004476841
-0.0031601335 -0.001644656 -0.011751655 0.004789766 0.004006687 -0.01599914 -0.0010583204 -0.0040421374
0.0014709182 -0.0008431476 0.00046790548 0.005196708 -0.009215551 -0.00013858434 0.0072728763 -0.005046685
-0.012908517 0.0022387805 0.0041661044 0.0043767486 0.0028046928 -0.004529279 -0.0032520932 0.0045657796
-0.00024310185 0.00029290223 0.010288595 0.006556029 0.024909995 -0.0035322697 -0.004209511 -0.01979182
0.0043646605 -0.0021683897 -0.0041365228 0.006203905 0.0040196427 -0.0013473517 -0.0015266949 0.018014275
0.0001370026 -0.00243594 -0.004892878 0.009094525 0.004897799 -0.00065768644 0.004480923 -0.001809833
-0.00112012 0.0066437027 -0.0042744637 0.016620059 -0.016730737 0.006517153 0.003973785 -0.008448274
-0.0039674453 -0.0005413505 -0.0047358717 -0.010455338 0.008838485 0.00033493535 0.0011806836 -0.0050245216

lin1.bias f4 [128]
00000000: 92ea 963c 24a2 703c cf08 7cb7 c646 903c
00000010: 0a36 23bc 9249 8a36 19be b03d 4a32 073d
00000020: 8a6b c53a 1a9a 60b4 9d0f 0f3d 840b de3b
00000030: c1e7 99bc e2cf 9fbc e7aa 113b 9ae9 cebb
00000040: 210c e63c 3bc5 893d 940d 61bd cbaf b43c
00000050: 71be 97bc 45bb fb3c 1e56 88b9 5d7e 3eb8
00000060: ada4 403d e0dc bb3d c703 803d 39ef d835
00000070: 2373 ebb7 467e 053b 41b1 adbd bb61 8bbd
00000080: 9412 3a3d e65d 5b3b 9c11 91bd 185b dc35
00000090: 8648 0fbd 8cf6 e431 4adb 743d 5a1a 50bd
000000a0: d6a5 ac3c fc00 b83c 5650 783d ce2f 453c
000000b0: 26ff b93d dcf4 c03c d671 b1bb 7848 c0bc
000000c0: 5a1c b6b2 0ba7 2f3d 8deb 603d 8c1f 233b
000000d0: fcc1 a63d aeb0 8bbd 2914 59bd d05a 6d3d
000000e0: ea87 94b4 a300 0db1 d367 813b f246 8ab7
000000f0: 6199 20bd 7bdd 303d 0c84 88bd efa9 84bd
00000100: 485b 88b4 bb8f 62bd c98c 873d 2bbb 5f3d
00000110: 97ff abbb 02fc 003d 6417 293d d585 16bd
00000120: cee5 58bd 0432 1032 cc1a 7b3d 22a9 723d
00000130: da7a 9b3d 9788 8bbd 8222 963d 10b0 28ba
00000140: fc7f b43d 9b3f c93c 4922 b4b4 f84d 11bc
00000150: ea07 9cbb 8910 d93a bc11 75bc 35d7 893d
00000160: a2b0 0ebd 9b77 2fbd 7f79 c5ba 26ed 953d
00000170: bcb7 8a3d 9435 96bb 49b7 c23c 4b4e 593c
00000180: 1e8d 893d bf63 ffbc e7af c03c 7922 44bd
00000190: dac3 3abd ec14 0533 d4ba 4eb2 d8ad 953d
000001a0: a9d9 90b9 8bcb 823d 458b e8bc ac01 a6bc
000001b0: 6040 38bb ef68 e3ba e264 92bd 5c75 53b2
000001c0: 0210 b2bc d840 75ba d6d3 48bd fa4b 12bc
000001d0: ad8c 28b9 37da 8aba bfda c8bb 5d2a c03c
000001e0: e9a0 4433 9281 df3b 128b 4d3d e34e bfbb
000001f0: fead 2c3d df2a ab3d b0cf ae3d 61af 383d
0.018422399 0.014687095 -1.5022421e-05 0.017611872 -0.009961614 4.121285e-06 0.08630008 0.033006944
0.0015061956 -2.0917687e-07 0.034927 0.006776275 -0.018787267 -0.019508306 0.002222711 -0.0063144686
0.028081955 0.06727072 -0.05494459 0.02205648 -0.018523427 0.030728946 -0.00026004104 -4.5417215e-05
0.047032047 0.09172988 0.062507205 1.6162877e-06 -2.8067798e-05 0.0020369454 -0.08481074 -0.0680575
0.045427874 0.0033472716 -0.07083437 1.6417789e-06 -0.034981273 6.6637025e-09 0.059779443 -0.05080638
0.02107517 0.022461407 0.06062349 0.012035323 0.09081869 0.023554258 -0.0054151816 -0.023472056
-2.1200481e-08 0.042883914 0.05491214 0.002489063 0.08142468 -0.06820808 -0.05299774 0.057947934
-2.766604e-07 -2.0518562e-09 0.0039491444 -1.6483918e-05 -0.039208774 0.04317997 -0.06665811 -0.06477725
-2.539839e-07 -0.055312853 0.066186495 0.054621857 -0.0052489745 0.031490333 0.041282073 -0.036748726
-0.052953534 8.393275e-09 0.061304852 0.05924333 0.075917915 -0.06813162 0.073308006 -0.0006434927
0.088134736 0.024566462 -3.3552558e-07 -0.008868687 -0.0047616856 0.0016560714 -0.0149578415 0.067305006
-0.03483642 -0.042838674 -0.0015066116 0.07320623 0.06773326 -0.0045840237 0.023769038 0.013263295
0.06716369 -0.031175492 0.023521377 -0.04788444 -0.045596935 3.0985504e-08 -1.2033258e-08 0.07308549
-0.0002762799 0.06386479 -0.028386721 -0.02026447 -0.0028114542 -0.0017349998 -0.07148148 -1.2308501e-08
-0.021736149 -0.0009355671 -0.049030147 -0.008929247 -0.00016074134 -0.0010593598 -0.006129592 0.0234577
4.5781153e-08 0.006820866 0.050181456 -0.0058382615 0.04215812 0.083577864 0.08535707 0.04508913

lin2.weight f4 [2, 128]
00000000: 47a4 c4bd 5f4f 04bb d336 473a cfe7 dcbd
00000010: ee9f f63d 3efc 26b3 9a3e 003e cf73 0cbd
00000020: 32c6 853d 2347 c939 80c5 5dbd adf7 5abc
00000030: 7f5c eabd 5848 6cbd a92f 473d d1ab e0bb
00000040: 5203 78b9 378d a5bd c77c c9bc 235e 893d
00000050: ed91 58bd 4182 aabd 4234 07bb 772e 6832
00000060: 0583 853d a0d0 dcbd ad58 943d 503e d3bb
00000070: 8909 25ba 14e7 983d 4ae0 fd3b e58b d2bc
00000080: 77da 4fbc 7884 713d efe5 53bd 1350 b0b1
00000090: 51df a33c 3774 6d34 ce34 c2bd dd20 3f3d
000000a0: 272b 673b 1206 9bbc 9aef 803d f158 65bd
000000b0: a22b c5bd d4a4 8abd a8f5 92b3 9bed de3b
000000c0: c237 5e3a 446c cfbd 7300 9cbd 69f4 0bb1
000000d0: 8a6f 86bd 4e40 cd3c b413 ffbd aac4 b6bd
000000e0: 1045 be35 9f52 adb9 4ad8 afbb ab69 2335
000000f0: 62a1 8d3a 293a adbd bf31 a3bd 27e2 d33b
00000100: c9c3 a4b5 32b2 9fbd 73a1 d9bd 93a0 fd3d
00000110: 381e dcb9 dc5d 1e3d d29e 043e f6e2 a93d
00000120: 0cad 813d 263c 63b4 f40d af3c 4b7b 363d
00000130: 418c e2bd 3748 b13d 9fce 80bd a3a1 5eb8
00000140: fb93 ddbb 73c7 183d fe09 5fb2 0c82 b73c
00000150: 661c 4233 20d4 b23b 2c30 75bb 1a9a 623d
00000160: b199 b23a d909 cfbb 7860 bebd 80d2 acbd
00000170: 38a3 09bd fd4a 0bb0 3987 613d 12a9 a03d
00000180: 4825 c73d 815c e23b b1a5 a2bd b38f f03a
00000190: 1380 26bb e662 56b8 1e27 cfb0 5a34 e33b
000001a0: 5602 6238 769b b7bd 7d0a 39bc f05b 433d
000001b0: 7080 1738 a701 d93b cafc 69bd 12fe f430
000001c0: c378 ce3c 1484 84b5 9f26 263d fe99 b1b7
000001d0: a73e 3038 e7da 61bd f34b f939 5088 0cbd
000001e0: 3dad 23bb d605 8dbc eab2 29bd d86a b8bd
000001f0: 02df f63d 7dff 72bd 6b67 adbd fa40 783d
00000200: 2dad 723d 306c 46b8 7042 c53b bb8f 83bc
00000210: c31d 33bd ce2a 6634 ca12 e53c d6d8 2dbd
00000220: 5fa1 20bd 1b02 b13b 12eb d83d d66f 183d
00000230: 1663 9b3d 95ef cf3d 94c5 8fbd b7a6 90b4
00000240: 0ff9 e23a 15eb 373d 2d89 4dbc a193 98bd
00000250: 93e7 3c3d 083e afbb 6e59 0533 620e 5739
00000260: 741c 81bd f3db 7a3d d982 8bbd 674f 3eb2
00000270: cc92 8eb8 6b91 82bd 1b2b 073e 65ec d93d
00000280: 5c37 6a3d eee9 f3bd 0db1 3739 2f0d b832
00000290: 1468 40bd 94ea f538 627b 8fbc f518 20bd
000002a0: 2e45 6dbd 9edc 8dbd 7b58 9dbd ba99 fcbc
000002b0: 6fc0 4b3d 869d 3b3d e878 99b8 53d5 7dbd
000002c0: 9cb8 4db3 6de1 343c a738 9a3d 4f1a 83b2
000002d0: 5dd2 bc3b 8b31 63bd b96e a43c 1fa1 3a3d
000002e0: 4127 263a 6757 52bb c868 57bb 3724 5e39
000002f0: 33d9 f7b1 724f 66bb fa39 95bd 4b13 d73d
00000300: 92fd b035 b9a1 d23d 80eb 9e3d 4f98 52bd
00000310: 9d73 2030 597e ea3d dcec 8cbc 15a0 56bd
00000320: ce4c edbd 9eb5 42b5 5f0a 9cbd 0734 863d
00000330: a27d 203d ba79 1abe 9f25 6abd 0f11 b3b6
00000340: 9bb0 e5bd 3991 a8bd 019f 903b dcdd a0bc
00000350: 7d6a 91bb 8295 ad3a 70a3 c2bc 045d 703d
00000360: 528b c2bb b9a5 863c 7f73 593d e02d 723d
00000370: ac21 c33d 7137 08bb d8e7 cbbd 7c27 5bbd
00000380: 5aec f63b 991e abbd afb3 603d ecaa 4b3c
00000390: 55bd d835 cb05 6d3b 909e edb1 ade5 d1bd
000003a0: 9972 c43a a0c2 b33d 2ddc c6bc c35a a33c
000003b0: fee6 0137 92a7 25bc a256 9b3d dde4 fab9
000003c0: 7d16 dc3d de22 c8b3 eb77 0cbd dc84 8d3b
000003d0: 29da db35 479b 893d 245d c7b1 5f42 ea3c
000003e0: 1f29 8c32 80b6 babb 4231 be3c ad90 e63c
000003f0: 5d5c 9dbd 871a ab3d f896 963d 54bb 32bd
-0.09601646 -0.002018891 0.0007599417 -0.107864015 0.12042223 -3.88793e-08 0.1252388 -0.03429013
0.065319434 0.00038390709 -0.05414343 -0.013364715 -0.114434235 -0.05768618 0.048629437 -0.0068564196
-0.0002365236 -0.08083575 -0.024595631 0.06707408 -0.05287354 -0.08325625 -0.0020630513 1.3514742e-08
0.065191306 -0.107819796 0.07243476 -0.006446637 -0.00062956713 0.0746595 0.0077476846 -0.025701473
-0.012686363 0.058964223 -0.051732954 -5.1313775e-09 0.020003946 2.2114624e-07 -0.09482728 0.0466622
0.0035273524 -0.018923793 0.062957 -0.055993024 -0.09627463 -0.0676972 -6.8433394e-08 0.006803227
0.00084769365 -0.10128072 -0.07617273 -2.0366093e-09 -0.06564243 0.025055077 -0.1245493 -0.089242294
1.4176203e-06 -0.0003305869 -0.00536636 6.0876e-07 0.0010805542 -0.08458359 -0.07968473 0.0064661684
-1.2275933e-06 -0.0779766 -0.10626497 0.12384143 -0.00041984185 0.03866373 0.1295121 0.082952425
0.06331834 -2.1162904e-07 0.021368958 0.044551175 -0.110619076 0.08656352 -0.0628941 -5.307946e-05
-0.0067620254 0.037299585 -1.298258e-08 0.022400878 4.5194973e-08 0.005457416 -0.0037412746 0.055322744
0.0013626126 -0.0063183126 -0.09295744 -0.08438587 -0.033602923 -5.067447e-10 0.0550606 0.078447476
0.09723908 0.006908 -0.079417594 0.0018353373 -0.0025405928 -5.1113682e-05 -1.507235e-09 0.006933731
5.3884774e-05 -0.08965199 -0.0112940045 0.0476951 3.6120822e-05 0.0066225114 -0.057125844 1.7825548e-09
0.025204068 -9.873206e-07 0.040564176 -2.1171752e-05 4.202002e-05 -0.055140402 0.00047549568 -0.034309685
-0.0024975084 -0.017214697 -0.04143039 -0.09004754 0.12054254 -0.059325684 -0.08466991 0.06060884
0.059247185 -4.7307636e-05 0.006019883 -0.016059747 -0.043729555 2.1435991e-07 0.02796306 -0.04244312
-0.039216395 0.0054018623 0.10591711 0.03721603 0.075872585 0.101531185 -0.07020107 -2.694339e-07
0.0017316657 0.044901926 -0.012544912 -0.07450033 0.046119284 -0.005347971 3.104781e-08 0.00020509356
-0.06304255 0.061244916 -0.068120666 -1.107751e-08 -6.798431e-05 -0.063753925 0.13200037 0.10640792
0.0571817 -0.11909853 0.00017518197 2.1426414e-08 -0.046974257 0.00011726204 -0.017514888 -0.0390863
-0.057927303 -0.06926845 -0.07682892 -0.030835021 0.049744066 0.045804523 -7.318129e-05 -0.06197102
-4.7898183e-08 0.011040074 0.07530337 -1.5262371e-08 0.005762382 -0.05546717 0.020072328 0.045563813
0.0006338247 -0.0032095553 -0.003286885 0.00021185061 -7.213339e-09 -0.0035142568 -0.07286449 0.10501727
1.318682e-06 0.102847524 0.07759762 -0.051414784 5.837196e-10 0.1144988 -0.017202787 -0.05239876
-0.11586915 -7.253492e-07 -0.07619166 0.06552892 0.039182313 -0.15085497 -0.057164785 -5.3366016e-06
-0.112153254 -0.08230824 0.004413486 -0.01963704 -0.004437743 0.0013243409 -0.023759574 0.058682457
-0.0059370184 0.016436445 0.05308866 0.05912578 0.09527907 -0.0020784999 -0.0995633 -0.053504452
0.0075354995 -0.083554454 0.05485886 0.012430888 1.6148357e-06 0.0036166783 -6.9156343e-09 -0.10248885
0.0014987766 0.08777356 -0.02427491 0.01994074 7.742781e-06 -0.010110753 0.07584883 -0.00047854232
0.10746477 -9.319568e-08 -0.03429405 0.0043188166 1.6380264e-06 0.0671907 -5.802251e-09 0.028596101
1.6316845e-08 -0.005698025 0.023216847 0.028145159 -0.076836325 0.08354669 0.07353014 -0.04363568

lin2.bias f4 [2]
00000000: b2f2 9a3d f9e8 2a3d
0.07565822 0.041726086
