baseline/experiments/results/PROTEINS/latest_PROTEINS.pth (torch, 71575 bytes, 6 tensors)

conv1.lin.weight f4 [128, 4]
-0.049761504 -0.46335438 0.5257051 0.14842235 0.050424293 -0.48594356 0.5806417 0.03688919
-0.13400331 -0.043506272 -0.7185854 0.26077533 0.39216298 -0.3714122 -0.26738644 -0.08065602
-0.3722744 -0.02494634 -0.086933546 -0.08929168 0.24192116 0.57826096 -0.2359028 0.1809377
0.05411458 -0.19260088 0.48722216 -0.0894837 -0.151378 -0.14926413 0.61491513 -0.040068112
-0.32635975 -0.19621468 0.38988835 0.08677133 0.028750693 0.50390327 -0.0965387 -0.15897435
-0.27416888 0.01856473 -0.3557148 -0.07496358 -0.20214757 -0.12159028 -0.43847042 -0.034899276
-0.27641883 -0.18002838 -0.24921268 -0.07303217 -0.049375676 0.5159082 -0.53155446 0.3520621
-0.21875927 0.4065269 0.06748898 0.07374138 -0.3264751 0.54399264 -0.6928925 0.09229633
-0.04646756 -0.062972344 0.13118212 0.07149685 -0.09387526 0.29845992 -0.39492685 -0.16760428
-0.37796852 0.17474067 0.05092264 0.23289873 0.44345164 0.17091146 0.28857678 0.08789025
0.3036354 -0.2930417 -0.07354116 -0.07342276 0.20381062 -0.003239878 -0.10359366 -0.1746016
0.32688546 0.08742976 0.2942457 0.08587453 0.090451255 -0.22745632 -0.5487716 -0.09986336
-0.13615856 -0.77663386 0.69071144 -0.22492932 -0.45589522 -0.24427195 0.11987516 0.03598699
0.4442353 0.20569314 0.47307974 0.15157513 0.23086637 0.44516426 -0.10347236 0.15620916
0.4143379 -0.0023179278 0.29533404 0.027114581 -0.21762161 0.7452653 -0.13715512 -0.023199052
-0.34494972 0.6778704 -0.58525264 0.16554466 -0.21599537 0.10159013 0.35168725 0.043460563
0.25561118 -0.64430135 0.62872446 0.1279392 0.002300954 0.7209589 -0.7673978 0.3312486
-0.27224538 -0.27367333 -0.316029 -0.036958378 0.20680535 0.25064695 0.26308033 -0.0345714
0.42088482 -0.49471515 0.66626924 -0.15114182 -0.22647509 -0.43022633 0.48315075 -0.23952755
-0.109103285 0.018083552 0.60466564 0.07952316 0.4108846 -0.004501705 0.24930403 -0.10034112
0.32757565 -0.27567378 0.3038196 -0.020522818 -0.41162017 -0.4641446 0.121928506 -0.2211843
-0.39553586 -0.21818443 0.21119455 0.0016857317 -0.061591238 -0.14195731 -0.20764312 -0.11900984
0.123853244 -0.10349414 0.24543396 -0.033632826 -0.26521635 -0.29720646 0.6515517 -0.016241278
0.27626976 -0.59481925 0.6598232 0.04357704 0.47374988 -0.6549189 0.38608563 -0.128845
-0.41912112 -0.28188103 -0.029284226 0.1765035 -0.06463362 -0.48827744 0.48451337 -0.1170326
-0.32841223 -0.14869405 0.56167394 -0.22756666 -0.13224268 0.35615987 -0.07329339 -0.052401077
0.09798461 0.04887321 -0.5225578 0.12376282 -0.13789888 -0.43140927 0.77193403 -0.37850022
0.092195824 -0.017220052 -0.34678534 0.0053101378 -0.38805237 0.15820228 0.13412213 0.14308941
0.478834 0.7308866 -0.27889362 0.17361708 0.08861848 0.31614318 -0.44685775 0.21558173
0.10249021 -0.14293772 -0.71571666 -0.121637635 0.42290264 -0.40646213 0.50041777 -0.23354708
0.25590566 -0.10134513 -0.7769818 0.13706405 -0.4285722 -0.32425445 0.04417632 0.0017635865
0.010793884 0.57881975 -0.16307737 0.19260705 -0.12724583 -0.2688925 0.56247777 0.22317499
00000000: b8d2 4bbd c93c edbe 9c94 063f 07fc 173e
00000010: b489 4e3d 98cd f8be efa4 143f 1f19 173d
00000020: 2a38 09be a233 32bd 36f5 37bf 5884 853e
00000030: 96c9 c83e bd29 bebe e0e6 88be fc2e a5bd
00000040: c09a bebe 445c ccbc 370a b2bd 8ede b6bd
00000050: 2eba 773e e908 143f 8190 71be bc47 393e
00000060: 40a7 5d3d 2a39 45be 2f75 f93e 3b43 b7bd
00000070: d602 1bbe b2d8 18be 146b 1d3f 761e 24bd
00000080: a018 a7be 80ec 48be 729f c73e 2bb5 b13d
00000090: 9386 eb3c ceff 003f 15b6 c5bd 2cca 22be
000000a0: dd5f 8cbe 1015 983c 4020 b6be 8186 99bd
000000b0: c6ff 4ebe 5304 f9bd 327f e0be 8bf2 0ebd
000000c0: c586 8dbe 5c59 38be 9c31 7fbe e491 95bd
000000d0: 263e 4abd 8f12 043f f413 08bf 7c41 b43e
000000e0: 6e02 60be 4b24 d03e aa37 8a3d b805 973d
000000f0: bf27 a7be 1a43 0b3f 6761 31bf dc05 bd3d
00000100: c554 3ebd a5f7 80bd 9b54 063e f16c 923d
00000110: ac41 c0bd bdcf 983e da33 cabe 75a0 2bbe
00000120: 1785 c1be 38ef 323e 4294 503d 017d 6e3e
00000130: 180c e33e 6a03 2f3e 56c0 933e ceff b33d
00000140: 1976 9b3e 9009 96be bf9c 96bd ac5e 96bd
00000150: bbb3 503e 2254 54bb ea28 d4bd c3ca 32be
00000160: 885d a73e 600e b33d 5fa7 963e fcde af3d
00000170: 823e b93d 4fea 68be 4c7c 0cbf 2985 ccbd
00000180: 266d 0bbe 7ad1 46bf 77d2 303f df53 66be
00000190: 196b e9be 6d22 7abe 1c81 f53d 1867 133d
000001a0: cf72 e33e 39a1 523e 8237 f23e 8336 1b3e
000001b0: 3c68 6c3e 92ec e33e 51e9 d3bd 4bf5 1f3e
000001c0: 1924 d43e 60e8 17bb 0636 973e 661f de3c
000001d0: 33d8 5ebe b5c9 3e3f 6472 0cbe f00b bebc
000001e0: 409d b0be ea88 2d3f 1ed3 15bf 8a84 293e
000001f0: e42d 5dbe 7c0e d03d 5a10 b43e b403 323d
00000200: 78df 823e eff0 24bf 16f4 203f 7e02 033e
00000210: 9acb 163b c390 383f 2f74 44bf 6b99 a93e
00000220: bf63 8bbe e91e 8cbe 8ece a1be ab61 17bd
00000230: c8c4 533e cc54 803e 77b2 863e be9a 0dbd
00000240: 377e d73e 4e4b fdbe 9f90 2a3f ecc4 1abe
00000250: 16e9 67be a046 dcbe 895f f73e b646 75be
00000260: 8b71 dfbd f523 943c 5ecb 1a3f 0add a23d
00000270: 775f d23e 0a83 93bb 8e49 7f3e a57f cdbd
00000280: ffb7 a73e 1d25 8dbe 3e8e 9b3e 781f a8bc
00000290: e1bf d2be 5ca4 edbe a7b5 f93d 237e 62be
000002a0: ad83 cabe bd6b 5fbe 6243 583e c5f3 dc3a
000002b0: 1847 7cbd 425d 11be 66a0 54be 6ebb f3bd
000002c0: c5a6 fd3d bcf4 d3bd 0a53 7b3e 93c2 09bd
000002d0: 70ca 87be 722b 98be 18cc 263f 6e0c 85bc
000002e0: 3b73 8d3e 1346 18bf 2cea 283f d77d 323d
000002f0: 588f f23e c4a8 27bf 04ad c53e f2ef 03be
00000300: 0b97 d6be b652 90be 79e5 efbc 55bd 343e
00000310: a25e 84bd 80ff f9be 2312 f83e caae efbd
00000320: a625 a8be 4143 18be ddc9 0f3f 3c07 69be
00000330: a06a 07be 965a b63e d81a 96bd 83a2 56bd
00000340: 28ac c83d 462f 483d 59c6 05bf 5d77 fd3d
00000350: 5d35 0dbe ade1 dcbe 789d 453f c8ca c1be
00000360: 2ad1 bc3d 1111 8dbc d98d b1be aa00 ae3b
00000370: cdae c6be c7ff 213e 5057 093e 0886 123e
00000380: bb29 f53e 621b 3b3f 25cb 8ebe adc8 313e
00000390: 9b7d b53d 85dd a13e 8aca e4be 75c1 5c3e
000003a0: 63e6 d13d 445e 12be 3539 37bf 271d f9bd
000003b0: b286 d83e ce1b d0be 611b 003f f726 6fbe
000003c0: 1106 833e 098e cfbd 47e8 46bf 855a 0c3e
000003d0: d16d dbbe ae04 a6be 3bf2 343d 2528 e73a
000003e0: d5d8 303c 882d 143f c1fd 26be c83a 453e
000003f0: bb4c 02be 47ac 89be 8bfe 0f3f fc87 643e

conv1.lin.bias f4 [128]
-0.20098063 0.31861466 0.17608847 -0.306191 -0.40937108 0.080058195 0.22624806 0.017697351
-0.11669075 -0.17959309 -0.2347091 -0.16049117 0.211804 0.1511394 -0.051997673 0.44507483
-0.2835441 -0.4209229 0.47376022 -0.0041685407 -0.3607422 -0.036165196 0.15640238 -0.3105139
0.117178485 0.24095441 0.14849223 -0.045631923 -0.4252691 0.1898488 0.4592853 0.079360165
-0.4108571 -0.062313784 -0.38280582 -0.43492964 0.20821004 0.17256989 -0.16459695 0.37319666
0.32237473 0.2578931 0.19007003 -0.25318512 0.23302576 0.4035221 -0.39210024 -0.23790312
-0.20325544 0.23414288 -0.17032588 -0.24159333 0.3943216 0.14529052 0.43408015 -0.3735616
-0.45022893 0.07302338 0.04220596 0.06877686 -0.181736 0.056295708 -0.11581437 -0.1329819
-0.17601864 0.20391661 -0.0025616079 -0.115288034 0.27128837 0.3938698 0.3045523 0.1751453
-0.29575405 -0.20750797 -0.34523556 -0.3085706 0.00554818 -0.24122714 0.4019127 -0.071268186
-0.399088 -0.006921129 -0.15910868 -0.33650815 -0.2604015 -0.43628985 -0.32357687 0.25720954
-0.39544776 -0.16486798 -0.3849357 -0.45681882 -0.118543305 0.22631702 -0.2628684 -0.16211855
-0.06825617 -0.30419648 0.33406374 0.37755626 0.34679237 0.3058734 -0.2504005 -0.47272083
-0.4267139 0.20197444 -0.104126565 -0.09336062 -0.046669435 -0.32659113 -0.3066416 -0.209204
0.28739956 -0.19156154 -0.13267455 0.3614536 0.36370665 -0.2729347 -0.19241475 0.39181376
0.31195647 0.24432234 0.097670026 -0.3288686 -0.44314492 0.10805066 -0.44332346 0.42477313
00000000: decd 4dbe 7621 a33e 8950 343e 11c5 9cbe
00000010: 1699 d1be 8df5 a33d 92ad 673e 09fa 903c
00000020: 8ffb eebd 40e7 37be 9557 70be cc57 24be
00000030: 26e3 583e 49c4 1a3e 83fb 54bd d9e0 e33e
00000040: b12c 91be 3583 d7be b390 f23e 4198 88bb
00000050: 34b3 b8be f521 14bd f227 203e aefb 9ebe
00000060: 46fb ef3d c1bc 763e 590e 183e 8ae8 3abd
00000070: dfbc d9be b967 423e 7127 eb3e 9587 a23d
00000080: dd5b d2be bd3c 7fbd 20ff c3be 19af debe
00000090: 0335 553e 29b6 303e 1a8c 28be a213 bf3e
000000a0: 4d0e a53e 900a 843e b8a1 423e 7ba1 81be
000000b0: 4e9e 6e3e 739a ce3e 5dc1 c8be e09c 73be
000000c0: 3222 50be 27c3 6f3e e869 2ebe 3e64 77be
000000d0: 85e4 c93e 0ac7 143e c13f de3e 7743 bfbe
000000e0: 6884 e6be 488d 953d 28e0 2c3d e2da 8c3d
000000f0: 0119 3abe 5496 663d 1630 edbd 682c 08be
00000100: 3b3e 34be 84cf 503e a6e0 27bb 221c ecbd
00000110: 4fe6 8a3e 4da9 c93e 47ee 9b3e 4a59 333e
00000120: 136d 97be f87c 54be b7c2 b0be f7fc 9dbe
00000130: 82cd b53b 3f04 77be 80c7 cd3e 0ef5 91bd
00000140: 4355 ccbe a3ca e2bb 63ed 22be cc4a acbe
00000150: 5853 85be 6261 dfbe deab a5be f8b0 833e
00000160: 2178 cabe 27d3 28be 4b16 c5be 28e4 e9be
00000170: d5c6 f2bd a6bf 673e b096 86be 6802 26be
00000180: e4c9 8bbd a4bf 9bbe 670a ab3e 0e4f c13e
00000190: c58e b13e 709b 9c3e 7f34 80be 7708 f2be
000001a0: 3f7a dabe 63d2 4e3e 4f40 d5bd da33 bfbd
000001b0: 7328 3fbd f436 a7be 2100 9dbe 9339 56be
000001c0: 0926 933e b528 44be d6db 07be 7210 b93e
000001d0: c237 ba3e 19be 8bbe 5f08 45be d09b c83e
000001e0: c2b8 9f3e a32f 7a3e 3907 c83d 7761 a8be
000001f0: e4e3 e2be aa49 dd3d 4bfb e2be dd7b d93e

lin1.weight f4 [128, 128]
-0.04065709 0.002231149 -0.030189613 0.044923443 -0.080132306 -0.064907216 0.032138087 -0.02057597
-0.0558649 -0.08165138 -0.012336003 0.054272372 -0.006033208 -0.09468213 0.06146943 -0.10408832
-0.04683129 -0.02391347 -0.046307676 0.05332435 0.018083567 -0.03450825 0.049575772 0.039010566
0.29393038 -0.041726533 -0.07020147 -0.00046642922 0.053177148 -0.32293758 -0.12589207 -0.04835479
0.0059393533 -0.10991202 -0.026929038 0.0066787302 -0.054826625 0.12545334 -0.061936066 -0.008434134
0.066697575 -0.033670764 -0.026167009 -0.0007341164 -0.019740492 0.088625886 0.090098105 0.10864605
-0.03051676 0.012641532 -0.014778246 -0.05406335 -0.04459424 0.20141946 -0.050161485 0.06789423
-0.1859947 0.04072679 0.05548644 0.04506344 -0.026270958 -0.019648787 -0.11053381 -0.01886355
0.007922711 0.03225246 -0.109799005 -0.021714369 -0.045964316 -0.060902648 0.20799556 -0.05387072
0.036490396 -0.02996895 0.07207251 0.06336323 -0.06771956 0.08214277 0.006894679 -0.11101825
0.07609074 -0.059592247 -0.023996452 -0.07081694 0.07865107 -0.07484897 0.061166298 -0.06478622
-0.0033862574 0.034767028 0.09396141 0.011996139 -0.000204493 0.03274859 0.07146448 -0.07848146
-0.0046967426 -0.04465381 -0.01885871 -0.053684466 -0.04761978 0.034143515 -0.06706075 0.082478575
-0.0020158757 -0.011299707 0.08531181 0.11681849 -0.08044356 -0.12375398 -0.087184496 -0.07116009
0.027073562 0.056096047 0.048679188 0.065002255 0.016681436 -0.035137735 0.014126317 0.061388254
0.06089997 0.025595272 0.009818986 -0.040020503 0.07380155 -0.1020225 0.066986546 -0.052790694
2.9667892e-06 -0.00036367652 -4.8625864e-08 1.4460771e-09 -0.0037810593 -5.7769008e-05 -0.0015618067 9.424248e-09
-0.0012289587 3.186049e-06 -0.00067287707 0.0009826024 9.1838723e-07 -3.1326293e-09 6.739e-06 -9.867709e-10
-0.00026787684 -0.0018401828 -2.7635242e-06 0.0025286365 5.251057e-07 -3.1973277e-06 -0.0012009215 9.4133386e-05
-3.0900483e-06 7.25515e-06 -0.0015788799 -4.8972793e-06 1.0424249e-08 -1.736855e-08 9.280295e-09 1.6264758e-08
-5.412538e-08 6.5243094e-06 0.0063578477 1.40371585e-05 0.0073459046 2.1260467e-08 2.1151575e-06 -0.0077062896
0.0020698975 9.980647e-07 5.373167e-06 -0.00144241 0.0006020785 1.2152944e-05 -2.0365963e-08 -0.00017693889
-0.00541923 0.00013880142 0.00024617414 0.00017311813 -1.8312372e-05 -6.182435e-06 0.0016782883 -0.0051304447
-1.1044042e-08 -1.403147e-07 4.9165196e-09 -0.0031989142 -4.181866e-08 0.000450861 2.0643447e-06 -2.057253e-06
-0.00034272304 5.252632e-06 5.524283e-10 -4.2273946e-06 -4.5818156e-06 0.0020360711 3.415727e-08 0.0013961236
1.4316869e-07 -5.118485e-08 -0.0027163748 0.0001939813 -7.303245e-06 3.5555524e-06 0.0020856434 -1.4702098e-06
-0.0030157224 0.00022289522 -4.668684e-08 -0.0014207859 0.00038164167 -0.0032487507 0.00036234927 -4.3472e-06
1.7071608e-05 1.7367183e-05 -6.6361183e-09 -5.981834e-05 0.0012350427 0.0018263158 -9.97904e-06 -0.0013700152
5.6183075e-05 1.6624073e-05 -0.0059330687 -0.002224997 -0.00095678837 -4.5469173e-05 0.0014360601 2.50818e-05
1.3330283e-06 -0.00023054822 0.0011147762 3.2437985e-08 -0.00062264194 0.00013377036 -0.0023594154 -7.245459e-07
-0.00067265186 -3.960938e-06 -4.674492e-06 -0.004785814 -0.00018044289 0.0042552017 -5.6826357e-06 0.0021822012
-0.00010676911 -0.0008088353 -1.7569917e-05 4.785377e-07 0.00037637627 -1.0446666e-08 1.700358e-09 -5.2006075e-05
00000000: 0c88 26bd 7838 123b 3550 f7bc a501 383d
00000010: 681c a4bd 13ee 84bd 3aa3 033d f08e a8bc
00000020: 98d2 64bd d738 a7bd f21c 4abc b54c 5e3d
00000030: 38b2 c5bb b4e8 c1bd 5ec7 7b3d 422c d5bd
00000040: 2bd2 3fbd 2ee6 c3bc 1ead 3dbd a26a 5a3d
00000050: fd23 943c 8658 0dbd f70f 4b3d 8bc9 1f3d
00000060: 0b7e 963e 71e9 2abd cac5 8fbd 128b f4b9
00000070: 48d0 593d 1358 a5be dae9 00be ac0f 46bd
00000080: e89e c23b 8e19 e1bd 499a dcbc 40d9 da3b
00000090: e291 60bd d776 003e acb0 7dbd 522f 0abc
000000a0: bd98 883d 5bea 09bd 325c d6bc b871 40ba
000000b0: d0b6 a1bc 7d81 b53d 5b85 b83d d281 de3d
000000c0: 49fe f9bc 6e1e 4f3c 7520 72bc 8871 5dbd
000000d0: 73a8 36bd e740 4e3e 2176 4dbd 210c 8b3d
000000e0: 6575 3ebe 22d1 263d c045 633d 7194 383d
000000f0: 3136 d7bc 7ef6 a0bc 8d5f e2bd bb87 9abc
00000100: 42ce 013c 281b 043d 4dde e0bd 55e2 b1bc
00000110: 1445 3cbd 0e75 79bd cafc 543e 8ba7 5cbd
00000120: f476 153d 7281 f5bc c19a 933d 95c4 813d
00000130: 8db0 8abd 783a a83d c2ec e13b 895d e3bd
00000140: 76d5 9b3d 0017 74bd 3594 c4bc 7908 91bd
00000150: d013 a13d 6b4a 99bd 8389 7a3d a3ae 84bd
00000160: f9eb 5dbb df67 0e3d d76e c03d 748b 443c
00000170: 2c6d 56b9 6323 063d f85b 923d e3ba a0bd
00000180: 22e7 99bb eae6 36bd 957d 9abc 3ee4 5bbd
00000190: f50c 43bd 12da 0b3d 2657 89bd 87ea a83d
000001a0: c81c 04bb 6822 39bc f5b7 ae3d 883e ef3d
000001b0: 98bf a4bd ba72 fdbd c98d b2bd 62bc 91bd
000001c0: 60c9 dd3c f8c4 653d d463 473d e71f 853d
000001d0: 82a7 883c 96ec 0fbd 1172 673c 4072 7b3d
000001e0: 3f72 793d 2dad d13c d0df 203c 8aec 23bd
000001f0: 4425 973d 2cf1 d0bd 3e30 893d 0e3b 58bd
00000200: 0d19 4736 d6ab beb9 b4d8 50b3 51bf c630
00000210: a6cb 77bb 004d 72b8 89b5 ccba 48e8 2132
00000220: 0315 a1ba e8cf 5536 0464 30ba aaca 803a
00000230: 1787 7635 cc45 57b1 921f e236 ea9e 87b0
00000240: d271 8cb9 4a32 f1ba fc74 39b6 7bb7 253b
00000250: fdf4 0c35 ac91 56b6 3d68 9dba 7a69 c538
00000260: a05e 4fb6 4471 f336 6bf2 ceba 4f53 a4b6
00000270: 5516 3332 d831 95b2 2b6f 1f32 95b6 8b32
00000280: 7c77 68b3 64eb da36 7e55 d03b 2381 6b37
00000290: eab5 f03b 43a0 b632 21f2 0d36 0b85 fcbb
000002a0: 1ea7 073b 3ef5 8535 274b b436 400f bdba
000002b0: ced4 1d3a 7fe4 4b37 3af1 aeb2 ac88 39b9
000002c0: cc93 b1bb 398b 1139 ef10 8139 0b87 3539
000002d0: 859d 99b7 b672 cfb6 03fa db3a 4a1d a8bb
000002e0: 36bc 3db2 69a9 16b4 2aee a831 e0a4 51bb
000002f0: 1a9c 33b3 8a61 ec39 2c89 0a36 560f 0ab6
00000300: 82af b3b9 c43f b036 b0d9 1730 0bd9 8db6
00000310: 7fbd 99b6 9b6f 053b 51b4 1233 22fe b63a
00000320: e9b9 1934 56d6 5bb3 3505 32bb 7567 4b39
00000330: 660e f5b6 ed9b 6e36 4aaf 083b 0654 c5b5
00000340: 6da3 45bb fbb8 6939 b984 48b3 aa39 baba
00000350: 1417 c839 fee8 54bb b2f9 bd39 2ade 91b6
00000360: 0035 8f37 beaf 9137 ea03 e4b1 74e5 7ab8
00000370: 28e1 a13a fd60 ef3a a76b 27b7 1592 b3ba
00000380: 1ea6 6b38 ed73 8b37 306a c2bb 41d1 11bb
00000390: fbd0 7aba 27b6 3eb8 2e3a bc3a c166 d237
000003a0: 81ea b235 51bf 71b9 af1d 923a f151 0b33
000003b0: cb38 23ba b544 0c39 6ca0 1abb 6a7e 42b5
000003c0: e754 30ba 33e8 84b6 95d9 9cb6 51d2 9cbb
000003d0: 4535 3db9 386f 8b3b 78ad beb6 4303 0f3b
000003e0: 3be9 dfb8 0508 54ba 1c63 93b7 dc74 0035
000003f0: 5e54 c539 ec78 33b2 07b2 e930 1921 5ab8

lin1.bias f4 [128]
-0.018349377 -0.0069913333 -0.031901676 0.011797987 -0.011678755 -3.332197e-09 -0.00047525266 0.027034843
0.00012817107 0.008308184 -0.059835177 0.03245407 -2.0486677e-07 0.04972497 -0.033529177 0.07914455
-0.059907634 -0.021425292 -0.027659865 -7.6464676e-05 0.017863253 -1.640837e-07 -1.7327955e-06 -5.2475113e-09
-0.044586863 -0.054069046 0.004311053 0.07280131 -0.004349165 -0.0009134835 -0.0002611085 0.024825316
0.003894269 0.016299423 -2.1661795e-09 -9.318895e-12 0.00010765226 -0.0065020286 1.0170192e-12 -0.038220286
-0.0044620764 0.063115686 -0.0011411025 -0.06282377 0.0052616037 -0.0042883027 -0.0013250486 -4.950295e-13
-3.386207e-11 -0.07413914 -0.0018873387 -1.337414e-13 -2.115111e-07 -0.024778131 0.09234029 -0.030103479
-0.03225996 -0.00024354958 -0.006173462 -0.009013566 0.003606577 0.018248947 -0.06448126 0.057449277
0.0071345097 -1.2717412e-09 2.208696e-14 -0.064105906 -3.2065424e-09 -0.003973916 0.04174503 0.03631926
0.067122556 0.06094523 0.072169095 0.04133945 0.067316756 -0.036756646 8.2280426e-19 -0.0006772256
0.0002451346 0.04672032 -0.052358415 -3.2109625e-12 0.06875591 0.0769224 0.0007602586 -0.0004200137
-4.688368e-08 -0.06275557 0.059575807 -4.3726774e-05 -5.5174123e-09 -0.00014157458 0.02532739 -0.033954773
-0.023961004 -0.02161341 0.015018757 0.03935578 -0.0020653794 0.055443745 -0.008729362 -0.0038695615
-0.08069726 0.027848383 0.0033452746 -0.024817457 -0.00012605937 0.004122102 -0.00045890233 0.09808238
0.056878608 -0.03955756 -0.045834273 -3.5496532e-06 -1.14691794e-07 -0.009008361 0.058206156 2.335258e-07
-0.0003865321 -1.2976674e-05 -0.0025414962 -0.0021821852 -0.0074191075 0.00026850865 -0.000408469 0.060281664
00000000: 6f51 96bc 8e17 e5bb 55ab 02bd 584c 413c
00000010: 4058 3fbc a1fc 64b1 552b f9b9 2d78 dd3c
00000020: a965 0639 0d1f 083c bb15 75bd 8fee 043d
00000030: 59f9 5bb4 69ac 4b3d e455 09bd 8a16 a23d
00000040: b561 75bd 1884 afbc f196 e2bc a95b a0b8
00000050: f555 923c fc2e 30b4 6692 e8b5 994d b4b1
00000060: b7a0 36bd 8177 5dbd bc43 8d3b da18 953d
00000070: 7183 8ebb d776 6fba 64e5 88b9 765e cb3c
00000080: fe36 7f3b 5e86 853c d5db 14b1 92f0 23ad
00000090: 5ec3 e138 f80e d5bb fa21 8f2b e08c 1cbd
000000a0: 9c36 92bb cc42 813d 0c91 95ba c0a9 80bd
000000b0: 8869 ac3b e484 8cbb 41ad adba a256 0bab
000000c0: 4ded 14ae 43d6 97bd 9460 f7ba 5694 16aa
000000d0: ba1b 63b4 82fb cabc e81c bd3d 929b f6bc
000000e0: 0523 04bd 5861 7fb9 c14a cabb a3ad 13bc
000000f0: 525c 6c3b d17e 953c c00e 84bd ef4f 6b3d
00000100: 9bc8 e93b 6ac9 aeb0 10f1 c628 f549 83bd
00000110: 175a 5cb1 a037 82bb d6fc 2a3d 81c3 143d
00000120: 8d77 893d b5a1 793d 64cd 933d 8e53 293d
00000130: 5edd 893d 238e 16bd 55d9 7221 d787 31ba
00000140: 6985 8039 ce5d 3f3d c775 56bd 8ff3 61ac
00000150: e6cf 8c3d 7e89 9d3d 174c 473a 4935 dcb9
00000160: 275d 49b3 fe85 80bd c305 743d 4467 37b8
00000170: ac93 bdb1 a373 14b9 637b cf3c 2914 0bbd
00000180: de49 c4bc 9b0e b1bc 3c11 763c 8733 213d
00000190: 515b 07bb fb18 633d 9905 0fbc 7898 7dbb
000001a0: 9b44 a5bd 4b22 e43c 653c 5b3b fb4d cbbc
000001b0: ce2e 04b9 b312 873b d498 f0b9 6adf c83d
000001c0: 8bf9 683d 1c07 22bd b8bc 3bbd 9436 6eb6
000001d0: 7b4c f6b3 ce97 13bc 9469 6e3d 15bf 7a34
000001e0: 76a7 cab9 64b6 59b7 3b8f 26bb fe02 0fbb
000001f0: fc1b f3bb 9fc6 8c39 c827 d6b9 e8e9 763d

lin2.weight f4 [2, 128]
-0.14320047 0.0003114504 -0.040221836 -0.017202362 -0.010557407 8.02053e-31 0.0037275217 -0.03659015
-0.0058528422 0.07570553 0.019921202 -0.02329536 -4.7636423e-08 -0.015672365 0.051805053 -0.2572085
0.022520326 0.06060757 -0.29731163 0.00047282522 0.06026782 -4.101337e-07 -1.7732803e-28 -2.5871083e-09
-0.06763698 0.08702911 1.499451e-06 0.07665582 0.008220333 0.007065558 9.963749e-28 -0.0072750933
0.074859925 -0.058301985 2.2762814e-08 -1.1647174e-11 0.0006104001 0.016662467 7.6447654e-11 0.03746454
-0.005076768 -0.175955 -0.00751853 0.060379624 -0.13974415 1.6421702e-05 0.008986548 8.5662116e-11
7.376026e-11 -0.20085274 -0.00021658429 3.9398586e-14 5.496372e-07 0.06479458 0.025135102 0.0033996098
-0.006571567 0.0057686297 0.0066364277 0.050406247 0.0036438622 0.019902822 0.0019693144 0.021315042
0.011471033 1.2057784e-26 2.5473804e-13 -0.0060375994 3.8753808e-22 1.0146166e-30 0.017820405 -0.6224438
-0.18704313 -0.013145873 -0.18079065 -0.021964861 0.036626365 -0.01836545 6.20166e-05 1.7832143e-20
0.00032384438 0.011892817 -0.43737218 2.3779587e-13 -0.004375177 0.076424286 -0.0072450433 -0.014094333
-3.9119783e-28 0.02393081 0.07240627 -0.0028475944 -1.07283765e-10 1.6652348e-10 -0.062267765 0.08302127
-0.1920114 -0.024917066 0.07298967 -0.0034283947 0.008519713 -0.06724846 0.0067481813 -0.026078865
-0.022115642 0.064222306 -0.0026223524 -0.059223942 -0.0047720694 0.0024525716 -0.004863251 0.0944882
-0.025075948 -0.17800963 0.05183349 -1.8742101e-05 6.213192e-06 -0.03386691 -0.019944735 -1.11866675e-05
-0.00044460708 -1.8781353e-06 0.0887111 5.934514e-23 -0.009993676 0.08616128 -0.004001491 -0.17128761
0.0793211 -0.0002443297 -0.013892057 0.017133966 0.01050347 -1.4810868e-30 -0.003952458 -0.07457952
0.005753452 0.04290357 -0.083758645 -0.05461366 -7.574863e-07 0.013703485 -0.029858308 0.110151805
-0.035569124 -0.023275942 0.14601992 -0.00036715157 0.09041128 1.843712e-07 -1.0535836e-18 1.941252e-09
-0.007596145 -0.008903969 -5.405389e-07 -0.0055950754 0.0051818267 -0.0070446753 2.2049497e-23 0.027769268
0.081575386 -0.05065356 -9.611664e-09 1.7299314e-12 -0.00062771095 -0.016646031 3.5573797e-11 -0.03343796
0.0049856193 0.26315036 0.007518558 0.018528858 0.09922541 -8.857611e-05 0.01800981 -5.9435554e-11
-1.0541704e-10 0.1634047 0.00026788333 -8.7746156e-14 -5.7395147e-07 0.021908041 -0.039098002 0.027765922
-0.05560713 -0.0056356885 0.017012075 0.048800647 -0.0026955702 -0.049901735 -0.06040059 -0.0730927
0.01513216 4.743109e-24 -8.6977185e-14 -0.08981483 -3.7106114e-23 4.3029286e-28 -0.006811368 0.6121439
0.20463552 -0.06339707 0.20664267 0.028929494 -0.021266097 -0.007953951 -6.040442e-05 -1.440684e-23
-0.0006854816 0.016759986 0.4918206 2.4305482e-13 -0.07731255 -0.06096416 0.00091854774 0.014106036
-1.1611239e-22 -0.01746757 -0.060861822 0.0029016896 1.6230678e-10 -1.10031324e-10 0.114865385 0.043098412
0.3092507 -0.066982016 -0.012491221 0.009751234 0.01646049 0.11744711 -0.0065710875 -0.020473676
0.15739219 -0.042386115 0.0026504255 -0.097875476 0.0046157525 -0.0023509925 0.0048999945 0.033805236
-0.063888825 0.19746794 -0.017410109 8.388178e-06 -1.2899044e-06 0.06956139 0.006541951 1.6564054e-06
0.0003994968 -2.5803045e-06 0.05710242 -3.2668352e-12 0.009802247 0.018724935 0.002534905 0.1278346
00000000: 25a3 12be 2a4a a339 a7bf 24bd f8eb 8cbc
00000010: f9f8 2cbc fa23 820d 7049 743b 8edf 15bd
00000020: 33c9 bfbb 800b 9b3d ca31 a33c e9d5 bebc
00000030: cd98 4cb3 5563 80bc 8931 543d d5b0 83be
00000040: 8c7c b83c a53f 783d 3b39 98be 87e5 f739
00000050: 64db 763d 5930 dcb4 3cca 6091 e4c8 31b1
00000060: 4285 8abd 513c b23d be40 c935 bafd 9c3d
00000070: 93ae 063c 3286 e73b c5e1 9d12 e863 eebb
00000080: 2950 993d 10ce 6ebd f587 c332 35e6 4cad
00000090: 4203 203a ba7f 883c 341c a82e 6b74 193d
000000a0: 045b a6bb 8c2d 34be 005e f6bb a050 773d
000000b0: 1719 0fbe 56c1 8937 503c 133c 7c5f bc2e
000000c0: 5633 a22e 57ac 4dbe e71a 63b9 7a6f 3129
000000d0: c88a 1335 05b3 843d 21e8 cd3c fdcb 5e3b
000000e0: 4d56 d7bb c606 bd3b 6476 d93b c876 4e3d
000000f0: ddcd 6e3b 3e0b a33c 9d0f 013b e29c ae3c
00000100: 00f1 3b3c 3ad4 6e14 9f67 8f2a 0ed7 c5bb
00000110: 9d40 ea1b 86a1 a40d 19fc 913c 7a58 1fbf
00000120: 3c88 3fbe ca61 57bc 2f21 39be a7ef b3bc
00000130: 8705 163d 2473 96bc e90e 8238 7a6b a81e
00000140: a8c9 a939 17da 423c 3fef dfbe ffdd 852a
00000150: a55d 8fbb 5684 9c3d d467 edbb ebeb 66bc
00000160: 7af3 f791 8c0a c43c bd49 943d b59e 3abb
00000170: 64eb ebae 3118 372f 7c0c 7fbd 0e07 aa3d
00000180: a39e 44be e01e ccbc 9c7b 953d ebae 60bb
00000190: 4496 0b3c 90b9 89bd d91f dd3b 58a3 d5bc
000001a0: dd2b b5bc fc86 833d c6db 2bbb ce94 72bd
000001b0: 055f 9cbb 53bb 203b e85b 9fbb 0883 c13d
000001c0: 136c cdbc 2848 36be 5b4f 543d 5b38 9db7
000001d0: ea7a d036 07b8 0abd 2463 a3bc 5fae 3bb7
000001e0: 271a e9b9 3d14 fcb5 2aae b53d dd7c 8f1a
000001f0: 84bc 23bc 5375 b03d f01e 83bb 0566 2fbe
00000200: 1a73 a23d 6119 80b9 839b 63bc 885c 8c3c
00000210: bf16 2c3c f051 f08d 9f83 81bb 26bd 98bd
00000220: 7487 bc3b a7bb 2f3d a789 abbd 93b2 5fbd
00000230: 1056 4bb5 9584 603c 6999 f4bc 4597 e13d
00000240: eeb0 11bd 30ad bebc 3f86 153e 407e c0b9
00000250: 8d29 b93d 92f7 4534 437b 9ba1 de66 0531
00000260: 15e9 f8bb f4e1 11bc 8d19 11b5 e556 b7bb
00000270: 50cc a93b 05d7 e6bb e93f d519 607c e33c
00000280: ff10 a73d 1b7a 4fbd 8c20 25b2 5977 f32b
00000290: f88c 24ba 425d 88bc 8974 1c2e 3ef6 08bd
000002a0: 685e a33b a5bb 863e 3c5e f63b d5c9 973c
000002b0: b136 cb3d f0c1 b9b8 4f89 933c 3eb3 82ae
000002c0: 85d0 e7ae 9053 273e b172 8c39 3796 c5a9
000002d0: a511 1ab5 7e78 b33c 3a25 20bd 5c75 e33c
000002e0: 4dc4 63bd 95ab b8bb e85c 8b3c 30e3 473d
000002f0: 2aa8 30bb c365 4cbd 9c66 77bd a0b1 95bd
00000300: e1ec 773c 7a7d b718 efda c3a9 d6f0 b7bd
00000310: 256f 339a 815d 0812 e531 dfbb 76b5 1c3f
00000320: f98b 513e 53d6 81bd 239a 533e 8cfd ec3c
00000330: 3d36 aebc 4a51 02bc c15a 7db8 9c55 8b99
00000340: e4b1 33ba 3d4c 893c e9cf fb3e e4d3 882a
00000350: 0b56 9ebd 8eb5 79bd b2ca 703a 011d 673c
00000360: 0b5f 0c9b 2618 8fbc 3f4a 79bd 462a 3e3b
00000370: 4c75 322f 21f6 f1ae 8b3e eb3d f687 303d
00000380: 1c56 9e3e de2d 89bd faa7 4cbc a4c3 1f3c
00000390: 26d8 863c 1c88 f03d 4752 d7bb 69b8 a7bc
000003a0: 6b2b 213e 109d 2dbd c3b2 2d3b f072 c8bd
000003b0: bd3f 973b 1c13 1abb 2290 a03b 5c77 0a3d
000003c0: 25d8 82bd 0935 4a3e a59f 8ebc f3ba 0c37
000003d0: c720 adb5 3476 8e3d dd5d d63b a851 de35
000003e0: 8e73 d139 4b29 2db6 3ae4 693d 12e2 65ac
000003f0: 9b99 203c 0965 993c a620 263b 13e7 023e

lin2.bias f4 [2]
0.027829807 -0.07900127
00000000: 56fb e33c 6bcb a1bd
